Weight/Pytorch_Pretrain/Conv2D_Voice_Model.pt (torch, 15074 bytes, 32 tensors)

conv1.weight f4 [6, 1, 1, 80]
0	0x3ddbc98c	0.107318014
1	0xbd9940c7	-0.074830584
2	0xbe3ec85e	-0.18631122
3	0xbeb433fb	-0.35195908
4	0xbe0d2d3c	-0.13786787
5	0xbd45b2f1	-0.048266355
6	0x3c65ef22	0.0140340645
7	0x3e23aafc	0.15983194
8	0x3e8538f5	0.26020017
9	0x3e899bc8	0.26876664
10	0x3d4b49d2	0.049630947
11	0x3d9732d4	0.073827416
12	0x3d2917c1	0.04128242
13	0xbe15232e	-0.14564201
14	0x3ccd150f	0.025034456
15	0x3df4fe42	0.11962558
16	0x3e09dc2e	0.13462898
17	0x3dea8db7	0.11452811
18	0x3d750b68	0.05982533
19	0xbe8fff7b	-0.28124604
20	0xbeb127eb	-0.34600767
21	0xbea8bae1	-0.32955077
22	0xbec88ba1	-0.39169028
23	0xbdec3335	-0.115332045
24	0x3c3761d3	0.011192757
25	0x3e9012eb	0.28139433
26	0x3ee2e270	0.44313383
27	0x3ed2b013	0.4114996
28	0x3ea1e31a	0.31618577
29	0x3df977a6	0.12181024
30	0xbdd2a68f	-0.10285675
31	0xbe964208	-0.29347253
32	0xbe6c064c	-0.23049277
33	0xbeae7c08	-0.34079003
34	0x3ce2e4b6	0.027696948
35	0x3e910c98	0.2832992
36	0x3eb14032	0.3461929
37	0x3e3d1a16	0.18466982
38	0xbdb852c2	-0.0900016
39	0xbe6a26b9	-0.22866334
40	0xbf0d5eb6	-0.5522264
41	0xbf544710	-0.8292093
42	0xbf5cf1ed	-0.8630665
43	0xbeb21751	-0.34783414
44	0x3e348d2c	0.17631978
45	0x3efb08fe	0.49030298
46	0x3f7fca03	0.9991762
47	0x3f871b01	1.0555116
48	0x3f7715ab	0.9651744
49	0x3f0a8b06	0.5411838
50	0x3e312198	0.17297971
51	0xbe909f96	-0.28246754
52	0xbf1bb53d	-0.6082342
53	0xbf39b144	-0.7253611
54	0xbf1adcc4	-0.6049311
55	0xbea31c2f	-0.3185744
56	0xbdd47a76	-0.1037492
57	0xbd8269e1	-0.06367851
58	0xbd3da42a	-0.046299137
59	0x3e060981	0.13089563
60	0x3c0deacd	0.008661938
61	0xbe154599	-0.1457733
62	0xbdc5c45c	-0.09656593
63	0xbe224a81	-0.15848733
64	0xbc1bdbef	-0.0095128855
65	0x3d11e06b	0.035614412
66	0x3cc40e7a	0.023932684
67	0x3e424a6a	0.18973699
68	0x3ea8c1ac	0.3296026
69	0x3e81e8e4	0.25372994
70	0x3ebcb51c	0.36856925
71	0x3e894f7d	0.26818457
72	0x3df3b2bd	0.11899326
73	0x3dad9e03	0.08477404
74	0xbd990b42	-0.074728504
75	0xbe025686	-0.12728319
76	0xbe8c543f	-0.27408025
77	0xbf009441	-0.5022622
78	0xbe22be86	-0.15892991
79	0x3aafb35a	0.0013404891
80	0xbd62f6a3	-0.055410992
81	0xbf13d99a	-0.5775391
82	0xbefc19cf	-0.4923844
83	0xbebb07f2	-0.365295
84	0xbf6caf59	-0.9245506
85	0xbef001b4	-0.468763
86	0xbe9248dc	-0.28571212
87	0x3c85df66	0.016341876
88	0xbe087ba3	-0.13328414
89	0xbe396b27	-0.18107282
90	0x3e73fdfb	0.23827355
91	0x3d9f79e4	0.07786921
92	0x3d846f15	0.064665
93	0x3e88ba02	0.26704413
94	0x3eaa180c	0.3322147
95	0x3e884323	0.2661372
96	0x3e2d08a9	0.16897835
97	0xbe9c80d6	-0.30567044
98	0xbe9e8f9c	-0.3096894
99	0xbe1638af	-0.1467006
100	0xbdf9dd38	-0.12200397
101	0xbdb184e1	-0.08667923
102	0xbe07f517	-0.13277088
103	0xbd9353a6	-0.07193689
104	0xbdb63701	-0.0889721
105	0xbe9d46a7	-0.30717966
106	0x3de6a346	0.11261611
107	0x3e1ed6ce	0.15511629
108	0x3e6c05f7	0.2304915
109	0x3e06c4b1	0.1316097
110	0xbdd5f39e	-0.10446857
111	0x3ef3e8dd	0.47638598
112	0x3e7ae144	0.24499995
113	0xbcb4759c	-0.022028737
114	0x3e97ac9a	0.29623872
115	0x3e68088e	0.22659513
116	0x3e711384	0.23542601
117	0x3eaac440	0.33352852
118	0x3e567941	0.20944692
119	0x3c6be68e	0.01439823
120	0x3ea1a187	0.31568548
121	0x3e586a1e	0.2113423
122	0x3e787192	0.24262074
123	0x3ebb54ca	0.36588126
124	0x3f24d2d7	0.64384216
125	0x3eb8a06e	0.36059898
126	0x3dc1049e	0.09424709
127	0x3f160747	0.58604854
128	0x3e9b2c61	0.30307296
129	0x3edb9f82	0.42895132
130	0x3ed5d7c9	0.41766194
131	0x3e2cecee	0.16887257
132	0x3e217dcf	0.15770648
133	0xbd6d1582	-0.05788184
134	0x3e1d3987	0.15353976
135	0xbf04e2f7	-0.5190882
136	0xbed2cb84	-0.41170895
137	0xbeeebe16	-0.466294
138	0xbf5ebcf4	-0.8700707
139	0xbda0fbcc	-0.078605264
140	0xbe8b5f20	-0.27221012
141	0xbe13351f	-0.14375733
142	0x3d155769	0.036460314
143	0x3e69100e	0.2276003
144	0x3e8e6c05	0.27816787
145	0xbe866f74	-0.26256907
146	0xbdd8c818	-0.1058504
147	0xbedb311b	-0.42810902
148	0xbe82cd97	-0.25547478
149	0xbe377714	-0.17916518
150	0xbeac0d04	-0.3360368
151	0xbe818231	-0.2529464
152	0xbd87e02e	-0.06634556
153	0xbe9b1664	-0.3029052
154	0xbec9d84d	-0.39422837
155	0xbd806f34	-0.0627121
156	0xbe5b2976	-0.21402535
157	0xbf24f796	-0.64440286
158	0xbe7c3f8e	-0.24633619
159	0xbe10a776	-0.14126381
160	0xbd16f6a7	-0.03685632
161	0xbee952cf	-0.4557099
162	0x3f3fda31	0.7494231
163	0xbe03cb99	-0.12870635
164	0xbf199422	-0.5999166
165	0x3f490ea8	0.7853799
166	0xbee60db9	-0.44932345
167	0x3d8ec360	0.069708586
168	0x3e9b28ef	0.30304667
169	0xbe112334	-0.14173585
170	0xbed51f29	-0.41625336
171	0x3d82c6a4	0.06385544
172	0x3e905c3a	0.28195363
173	0xbe7cf9b6	-0.24704632
174	0x3efa5e46	0.4890005
175	0xbee15a37	-0.4401414
176	0x3e6c573b	0.23080151
177	0x3e720695	0.23635323
178	0xbf843dae	-1.0331323
179	0x3f2d0ec4	0.67600656
180	0x3eff3069	0.49841622
181	0xbf1ef624	-0.6209433
182	0x3ea0a884	0.31378567
183	0xbdf71904	-0.12065318
184	0xbeb3551c	-0.3502587
185	0x3e01c58b	0.12673013
186	0xbc95f252	-0.018304024
187	0x3e8e481b	0.27789387
188	0x3e366bee	0.1781461
189	0xbf08d314	-0.5344708
190	0x3f04385e	0.5164851
191	0x3c1656e0	0.009175986
192	0xbedfc4f5	-0.43704954
193	0xbe4bdffb	-0.1990966
194	0x3e2265d7	0.15859161
195	0x3e768157	0.24072777
196	0xbe786d96	-0.24260554
197	0x3edfce28	0.43711972
198	0x3d76ea86	0.060282253
199	0xbed9dfa9	-0.42553452
200	0x3ea32b37	0.31868908
201	0xbe8e915c	-0.27845275
202	0xbdbe8bab	-0.09303983
203	0x3d129ad1	0.035792176
204	0x3d0bd8b9	0.03414223
205	0x3d4799ca	0.04873065
206	0xbe4a663d	-0.19765563
207	0x3f1b9dd6	0.60787714
208	0xbecfaace	-0.4056
209	0x3ecdc987	0.40192816
210	0xbe676c5e	-0.22599933
211	0xbefd20d4	-0.49439108
212	0x3e3a1efe	0.18175885
213	0x3e090faf	0.13384889
214	0xbb051c88	-0.0020311195
215	0xbe55c8c1	-0.20877363
216	0x3e87838d	0.26467553
217	0xbbdd620c	-0.006756073
218	0x3e9debe1	0.30844024
219	0xbdf8d10f	-0.1214925
220	0xbf06ecda	-0.52705157
221	0x3f1022f0	0.5630331
222	0xbf24ef26	-0.6442741
223	0xbdf1861e	-0.11793159
224	0x3f3e5d28	0.74360895
225	0xbe389ab4	-0.18027765
226	0x3e851bf4	0.2599789
227	0xbe61e5d4	-0.22060329
228	0xbe147b0c	-0.14500064
229	0xbead83d2	-0.33889633
230	0x3e13bf80	0.1442852
231	0x3f321639	0.6956516
232	0xbf49a843	-0.7877237
233	0x3e8c2510	0.27372026
234	0x3eb5f7c5	0.35540596
235	0xbf1bae2b	-0.60812634
236	0x3ce9f453	0.028558886
237	0x3f0c3e38	0.5478244
238	0xbe76a838	-0.24087608
239	0xbdc76a6d	-0.09737096
240	0xbecfa69c	-0.405568
241	0xbeb0f837	-0.34564373
242	0x3d940695	0.07227818
243	0xbd011c79	-0.031521294
244	0x3e7b6713	0.24551038
245	0x3efb5ac8	0.49092698
246	0x3ebaae3f	0.36461064
247	0x3eb5fe8c	0.35545766
248	0x3eaaa98b	0.33332476
249	0x3d16d39a	0.036822893
250	0xbe4df661	-0.20113517
251	0xbe922bf7	-0.28549168
252	0xbec8ed1c	-0.392434
253	0xbed1d4bb	-0.40982613
254	0xbe0390a0	-0.12848139
255	0xbe4751a6	-0.1946474

conv1.bias f4 [6]
0	0x38d28da2	0.000100399615
1	0x37fb9392	2.999025e-05
2	0x3b08133a	0.0020763413
3	0x39a53069	0.0003150732
4	0x39564802	0.00020435455
5	0xb6ad0c3a	-5.157225e-06

bn1.weight f4 [6]
0	0x3fa5b538	1.2945929
1	0x3f4dc3eb	0.8037707
2	0x3f76ca12	0.96402085
3	0x3f9680f6	1.1758106
4	0x3f88ff8c	1.0702987
5	0x3f885271	1.0650159

bn1.bias f4 [6]
0	0x3c9f68f1	0.01945922
1	0x3dd73c06	0.105094954
2	0xbaae72db	-0.0013309376
3	0xbcb86299	-0.022507953
4	0x3d552e5b	0.05204616
5	0x3c1b8fd9	0.009494745

bn1.running_mean f4 [6]
0	0x36f58ccd	7.3179604e-06
1	0xb95f92d4	-0.00021321635
2	0x3af2785b	0.0018499003
3	0x398ea01a	0.00027203636
4	0x39d9ffdb	0.00041580093
5	0xb7875847	-1.6134361e-05

bn1.running_var f4 [6]
0	0x3e04b102	0.12958148
1	0x3e7f2d7d	0.24919696
2	0x3be38e82	0.0069444785
3	0x3e55e452	0.20887879
4	0x3e41b941	0.18918325
5	0x3e9f3005	0.31091323

depthwise_conv2.weight f4 [6, 1, 1, 3]
0	0xbee5bcc5	-0.44870582
1	0xbf12fde2	-0.57418644
2	0xbef5e280	-0.48024368
3	0x3df86b44	0.12129834
4	0x3ef67cdd	0.48142138
5	0x3ed74a33	0.42048797
6	0x3ea45aa3	0.321004
7	0x3ea6197a	0.32441312
8	0x3ebba17e	0.36646646
9	0xbef82f3e	-0.48473543
10	0xbf2aa9b5	-0.666652
11	0xbf0edf72	-0.558097
12	0x3ecee6c8	0.40410447
13	0x3ecbde9d	0.39818278
14	0x3ef7325f	0.48280618
15	0x3eefd938	0.46845412
16	0x3f1293d9	0.5725685
17	0x3ec5d080	0.38635635

depthwise_conv2.bias f4 [6]
0	0xb9131a57	-0.00014028825
1	0xb6d0d88f	-6.224094e-06
2	0x3776e16a	1.4715226e-05
3	0xb8ab1e7b	-8.159593e-05
4	0x37aad244	2.0363492e-05
5	0xb6d10e80	-6.2303734e-06

pointwise_conv2.weight f4 [6, 6, 1, 1]
0	0x3ceca3f5	0.028886775
1	0x3f0b40e4	0.5439589
2	0x3e8d1d90	0.27561617
3	0xbe8037c9	-0.2504256
4	0x3f2411d3	0.640897
5	0x3f3d6819	0.73986965
6	0x3f38c9f0	0.7218313
7	0x3ecc518f	0.39905974
8	0x3e6b31e3	0.22968249
9	0x3e7187f8	0.23587024
10	0xbeba2d08	-0.3636248
11	0x3e58ecdd	0.21184106
12	0x3f0d7e35	0.552707
13	0xbeec0417	-0.4609687
14	0x3e648e8b	0.22320001
15	0x3f2316d7	0.63706726
16	0x3e371238	0.17878044
17	0x3e48db63	0.1961494
18	0x3de5206b	0.11187824
19	0xbebcabc8	-0.3684981
20	0x3f1c4405	0.6104129
21	0x3e89b0c2	0.26892668
22	0xbf251c0b	-0.64495915
23	0xbf17d038	-0.5930209
24	0xbc8b4c17	-0.017004056
25	0xbd88b389	-0.066748686
26	0xbff37564	-1.90202
27	0xbd6847a1	-0.056708936
28	0xbeb3ee77	-0.35142872
29	0xbec39d0e	-0.3820576
30	0xbdfa7eed	-0.122312404
31	0xbd28779f	-0.041129705
32	0x3e82e251	0.2556329
33	0xbe208708	-0.1567651
34	0xbf7c75f4	-0.9861748
35	0xbf8e31ad	-1.110891

pointwise_conv2.bias f4 [6]
0	0x34972be2	2.815787e-07
1	0xb861211c	-5.3675016e-05
2	0xb89605a1	-7.153606e-05
3	0xb6ffc480	-7.622468e-06
4	0xb8409fbe	-4.592514e-05
5	0x38764308	5.8713398e-05

bn2.weight f4 [6]
0	0x3f2d51b8	0.6770282
1	0x3fa27864	1.269299
2	0x3f2240fe	0.6338042
3	0x3f5fcf1f	0.87425417
4	0x3faa1fe9	1.3290988
5	0x3f365798	0.7122741

bn2.bias f4 [6]
0	0x3ed123aa	0.40847522
1	0xbea3e535	-0.3201081
2	0x3f9b3729	1.2126209
3	0x3f203b74	0.6259072
4	0xbe934f4c	-0.28771436
5	0x3f6e06da	0.92979205

bn2.running_mean f4 [6]
0	0x3fc5804d	1.5429779
1	0xbf12d5bb	-0.57357377
2	0xbf5e4c11	-0.8683482
3	0xbf9554fb	-1.1666559
4	0xbf935275	-1.1509539
5	0xbf986b5f	-1.1907767

bn2.running_var f4 [6]
0	0x410a6095	8.64858
1	0x4055057b	3.3284595
2	0x40ac3364	5.3812733
3	0x40c7905a	6.236371
4	0x40d25b21	6.573624
5	0x40ecb53f	7.397125

depthwise_conv3.weight f4 [6, 1, 1, 3]
0	0x3f02151e	0.5081347
1	0xbddb6990	-0.10713494
2	0xbec6abc0	-0.3880291
3	0xbe82eb50	-0.25570154
4	0xbedf1ff5	-0.4357907
5	0xbf6b7766	-0.9197906
6	0x3e66e7e4	0.22549397
7	0x3f33f3f9	0.7029415
8	0x3edccdf5	0.43125883
9	0xbefa20a6	-0.48853034
10	0xbdbf8083	-0.093506835
11	0x3f1597cd	0.58434755
12	0xbe858c0a	-0.26083404
13	0xbf2e484c	-0.68079066
14	0xbed3da79	-0.4137762
15	0x3e8fe28c	0.2810253
16	0x3f027e98	0.50974417
17	0x3e79768f	0.24361633

depthwise_conv3.bias f4 [6]
0	0xb895817e	-7.1289935e-05
1	0x380cedd0	3.360008e-05
2	0xb79ae4e2	-1.8464812e-05
3	0xb89c33e6	-7.4483265e-05
4	0xb8af7191	-8.365804e-05
5	0x38d8e9d5	0.00010343237

pointwise_conv3.weight f4 [12, 6, 1, 1]
0	0x3f34bfbd	0.7060507
1	0x3f003b15	0.5009015
2	0xbdcb12fe	-0.09915732
3	0x3f4566ab	0.77109784
4	0x3e574825	0.21023615
5	0x3de33734	0.110945135
6	0x3cd10170	0.02551338
7	0x3f0164e4	0.5054457
8	0xbe4be452	-0.19911316
9	0xbef5b3bf	-0.47988698
10	0x3ef927fc	0.48663318
11	0xbebc437d	-0.3677024
12	0xbe886551	-0.26639798
13	0x3eef7ddc	0.4677571
14	0x3dd51e19	0.10406131
15	0xbeae927d	-0.34096137
16	0xbfb2aedf	-1.3959616
17	0x3e874547	0.26420042
18	0xbd78b51d	-0.060719598
19	0x3f7fa765	0.998648
20	0xbd99b791	-0.07505716
21	0xbe99e60f	-0.30058333
22	0x3f59561b	0.8489701
23	0xbe723f84	-0.23657042
24	0xbed965a2	-0.42460352
25	0x3d65112d	0.055924583
26	0x3f3940c1	0.7236443
27	0xbee3f9b8	-0.44526458
28	0x3ee7c937	0.45270702
29	0x3e8143c8	0.25247025
30	0xbd1d0b66	-0.03834095
31	0x3d587b27	0.052851822
32	0x3f46bede	0.7763499
33	0xbe72e1fe	-0.23719022
34	0x3ef785df	0.48344323
35	0xbf0554aa	-0.5208231
36	0xbee0e296	-0.4392287
37	0x3eaafc5e	0.33395666
38	0x3e3974c9	0.18110956
39	0xbf545206	-0.8293766
40	0xbd2e99a7	-0.042627003
41	0x3ee4ef81	0.44713977
42	0x3c2be046	0.010490483
43	0x3f25b563	0.647299
44	0x3e9db3f3	0.30801353
45	0x3f2886d3	0.65830725
46	0xbebd5864	-0.369815
47	0x3ef7be5b	0.48387417
48	0xbd09072d	-0.03345411
49	0x3e605924	0.21909004
50	0xbf0cdc04	-0.5502322
51	0xbed1c798	-0.4097259
52	0x3e2afe70	0.16698623
53	0xbf3acfdc	-0.7297342
54	0x3f118553	0.5684406
55	0x3dcaf8a4	0.09910706
56	0x3f33715b	0.7009484
57	0x3de51f88	0.11187655
58	0x3f08f65b	0.5350091
59	0x3f35f4d1	0.71076685
60	0xbe04c109	-0.12964262
61	0x3e8af14b	0.27137217
62	0x3f30dcdb	0.69087
63	0xbe8f90ee	-0.2804026
64	0x3f16f427	0.58966297
65	0xbf24ae8f	-0.64328855
66	0x3c7b283d	0.015329418
67	0x3f59385b	0.84851617
68	0xbf115f9b	-0.5678651
69	0x3f139d09	0.5766149
70	0x3f1021d3	0.5630161
71	0x3f0c58ce	0.54823005

pointwise_conv3.bias f4 [12]
0	0xb77a7826	-1.4929135e-05
1	0xb82bd82e	-4.097091e-05
2	0xb889b51f	-6.5664055e-05
3	0xb87cc218	-6.0262246e-05
4	0x397a150b	0.00023849697
5	0x37d95fa6	2.5912956e-05
6	0xb9b213f6	-0.00033965678
7	0xb678362c	-3.6986412e-06
8	0x36192558	2.2820514e-06
9	0xb8feef7e	-0.00012156273
10	0xb84b7b9a	-4.8514084e-05
11	0x38042ef1	3.151497e-05

bn3.weight f4 [12]
0	0x3f660fd0	0.8986788
1	0x3f640525	0.8907035
2	0x3f3afbb4	0.7304032
3	0x3f4c5eb2	0.79831994
4	0x3f942589	1.1573955
5	0x3f85f055	1.0463969
6	0x3f9f8025	1.2460982
7	0x3fa080df	1.2539328
8	0x3f7049d1	0.93862635
9	0x3fa362c2	1.2764513
10	0x3f66bb4c	0.9012954
11	0x3f7797a5	0.96715766

bn3.bias f4 [12]
0	0xbe804a7c	-0.25056827
1	0x3f065d83	0.5248644
2	0x3f89fa45	1.0779501
3	0x3f10e78e	0.56603324
4	0xbef0e5ca	-0.47050315
5	0xbc6a8796	-0.014314553
6	0xbef87d54	-0.48533118
7	0x3e3d7c05	0.18504341
8	0x3f0490fb	0.5178372
9	0xbeeaee57	-0.45884964
10	0x3e788c22	0.24272206
11	0x3f7a67be	0.9781455

bn3.running_mean f4 [12]
0	0xbe32eacd	-0.17472382
1	0xbf6f9243	-0.9358255
2	0x3f36cdca	0.7140776
3	0xbf3c7c1a	-0.73626864
4	0x3fb67f06	1.4257514
5	0x3f2dec50	0.6793871
6	0x3f410579	0.75398976
7	0x3f862681	1.04805
8	0xbfe98c74	-1.8245988
9	0x3fee2255	1.8604227
10	0x3ead8977	0.3389394
11	0xbf29f13d	-0.66383725

bn3.running_var f4 [12]
0	0x3d8af8fc	0.06785771
1	0x3dc20805	0.09474186
2	0x3e0daefa	0.1383628
3	0x3dfc7fd4	0.12329069
4	0x3e10a4ce	0.14125368
5	0x3da1004b	0.07861384
6	0x3da13a5b	0.078724585
7	0x3e0a139b	0.13484041
8	0x3e78ab30	0.24284053
9	0x3e5bed30	0.21477199
10	0x3d8d5add	0.069020964
11	0x3e11fa9d	0.14255758

depthwise_conv4.weight f4 [12, 1, 1, 3]
0	0x3de2e584	0.11078933
1	0x3f32f21c	0.6990068
2	0x3e7d0295	0.24708016
3	0xbee0394b	-0.4379371
4	0xbefce0e1	-0.4939032
5	0x3eb9543c	0.36197078
6	0xbeceddc4	-0.4040357
7	0x3ea18979	0.31550196
8	0xbf7b43cd	-0.9815033
9	0xbf0b1249	-0.54324776
10	0x3f1ae912	0.6051189
11	0x3ef5fd01	0.4804459
12	0xbe2cc6bf	-0.1687269
13	0xbf6bddb9	-0.92135197
14	0xbee650cb	-0.44983515
15	0x3d52adc2	0.05143524
16	0xbf4c8d0d	-0.79902726
17	0x3d8f8e2a	0.070095375
18	0x3ee7bb67	0.45260164
19	0x3f7fcdef	0.99923605
20	0x3e8f1b55	0.2795054
21	0x3d8f8423	0.07007625
22	0x3f87f48c	1.0621505
23	0x3be02e70	0.0068414733
24	0x3e4b4e58	0.19854105
25	0xbe91472e	-0.28374618
26	0x3f277c13	0.654237
27	0x3d9e9418	0.077430904
28	0x3f01181e	0.50427425
29	0x3f8d6776	1.1047199
30	0xbdcd88e5	-0.10035876
31	0x3dbdff6a	0.09277232
32	0xbf311612	-0.691743
33	0xbf57bc99	-0.8427215
34	0x3e83fce5	0.2577888
35	0xbbe94940	-0.007119328

depthwise_conv4.bias f4 [12]
0	0xb823e90c	-3.907927e-05
1	0xb6b2ae44	-5.3251006e-06
2	0xb8765096	-5.8726022e-05
3	0x383a6e18	4.444839e-05
4	0xb7d8783f	-2.58052e-05
5	0xb841942c	-4.615278e-05
6	0x370eb388	8.50566e-06
7	0x38fc9844	0.00012044658
8	0xb7e215b8	-2.6951413e-05
9	0x3883bf94	6.282251e-05
10	0xb7be3140	-2.2672699e-05
11	0xb71cc87c	-9.3450035e-06

pointwise_conv4.weight f4 [12, 12, 1, 1]
0	0xbeb38014	-0.35058653
1	0xbf05f0be	-0.5232047
2	0x3eb95945	0.3620092
3	0xbd5b89ad	-0.053598095
4	0x3e73a1cc	0.2379219
5	0x3dbd94c6	0.09256892
6	0xbf04c7da	-0.5186745
7	0xbe8b478d	-0.27203026
8	0x3ef0870e	0.4697804
9	0xbf95301a	-1.1655304
10	0xbe350232	-0.17676619
11	0xbeaff436	-0.34366006
12	0x3e209b91	0.15684344
13	0xbd6f5d44	-0.058438554
14	0x3eca1046	0.3946554
15	0xbebdbdff	-0.37059018
16	0x3ed1db6e	0.40987724
17	0xbe659013	-0.22418241
18	0xbe8a42d4	-0.2700411
19	0x3faf7614	1.370791
20	0x3e1dfde6	0.15428886
21	0xbe834cdf	-0.25644585
22	0x3eb94259	0.36183432
23	0x3e8a575e	0.2701978
24	0x3a5fa282	0.00085309905
25	0x3eb806bd	0.3594264
26	0x3ea40a74	0.32039225
27	0xbc07bf4f	-0.008285358
28	0xbeaf829d	-0.34279338
29	0x3e86bdb6	0.26316613
30	0xbf1f2a36	-0.62173784
31	0xbe93903a	-0.28820974
32	0xbf0bbc15	-0.54583865
33	0x3ef74dd4	0.48301566
34	0xbed5156c	-0.41617906
35	0xbc8a713c	-0.016899697
36	0x3e02a2f2	0.12757471
37	0x3f1e346f	0.6179876
38	0x3e888b93	0.26668987
39	0xbe5cfdad	-0.21581145
40	0x3a5b5429	0.0008366728
41	0x3f094423	0.53619593
42	0x3cbe9414	0.023263969
43	0x3f0a9228	0.54129267
44	0xbe19dbf4	-0.15025312
45	0x3e055ecf	0.13024448
46	0xbf87ed40	-1.0619278
47	0xbe5218ce	-0.20517275
48	0xbd52ed6b	-0.05149595
49	0xbdbeafd8	-0.09310883
50	0x3e6a9a77	0.22910486
51	0x3f3928d9	0.72327954
52	0xbddca18f	-0.10773002
53	0x3eb94d87	0.3619196
54	0x3f29cc66	0.6632751
55	0x3e974bc5	0.29549995
56	0xbf2b6c5c	-0.6696222
57	0xbe1c6daf	-0.15276216
58	0x3d90822c	0.07056078
59	0xbdda7f18	-0.106687725
60	0x3e839623	0.25700483
61	0xbeda5a41	-0.42646983
62	0xbfab682d	-1.3391167
63	0x3d92f155	0.07174937
64	0x3e08c8c5	0.13357837
65	0xbef213f3	-0.47280845
66	0xbce81de1	-0.02833456
67	0x3d773944	0.060357347
68	0x3d126cc9	0.035748277
69	0x3e085c20	0.13316393
70	0xbdd08ba8	-0.10182887
71	0xbf278c51	-0.6544848
72	0x3f20df11	0.6284037
73	0xbec62527	-0.3870022
74	0x3e5f9f59	0.2183813
75	0x3ac236d3	0.0014817364
76	0xbe94d3b3	-0.29067764
77	0x3f0c1a4f	0.54727644
78	0xb98bdd75	-0.00026677144
79	0x3f25a41d	0.6470354
80	0xbf1cb888	-0.6121907
81	0x3e3d6604	0.18495947
82	0x3f04c3d1	0.5186129
83	0xbe80e998	-0.25178218
84	0xbf2467fa	-0.64221156
85	0x3eae1ca3	0.34006223
86	0x3f0737ae	0.52819335
87	0x3ec8b1b2	0.3919807
88	0x3f8c0971	1.0940381
89	0x3e466cd2	0.19377449
90	0x3f0f3b0f	0.5594949
91	0xbe1a7ce0	-0.15086699
92	0xbe19a2e6	-0.15003547
93	0x3f18e372	0.59722054
94	0x3c27f06c	0.010250192
95	0x3c43d590	0.011952773
96	0xbe6d3550	-0.23164868
97	0x3d7b02b9	0.061281893
98	0x3de91c64	0.11382368
99	0xbec9669f	-0.39336106
100	0x3e607406	0.2191926
101	0xbef0519f	-0.46937272
102	0xbe244508	-0.16041958
103	0xbef6a770	-0.4817462
104	0xbec6ca93	-0.38826427
105	0x3f001a99	0.50040585
106	0x3eea19f1	0.45722917
107	0xbf5c6cc5	-0.8610347
108	0xbe0eb404	-0.13935858
109	0xbd54043f	-0.051761862
110	0xbe480dc1	-0.19536497
111	0x3f40f4f1	0.7537375
112	0x3e6dbd66	0.23216781
113	0xbeafcdfd	-0.34336844
114	0xbf4b4d02	-0.7941438
115	0xbf11dd6e	-0.569785
116	0x3e20efd4	0.15716487
117	0xbe612eb0	-0.21990466
118	0xbda49960	-0.080370665
119	0x3f061332	0.5237304
120	0xbf496668	-0.78671885
121	0xbed89438	-0.42300582
122	0xbf5007c2	-0.8126184
123	0x3f0de610	0.5542917
124	0xbd08f65b	-0.033438068
125	0x3d93131d	0.0718138
126	0x3df9a4b9	0.121896215
127	0x3f2287d0	0.63488483
128	0x3e74c056	0.23901495
129	0x3f63c4fa	0.8897244
130	0xbe06d866	-0.13168487
131	0x3c31928e	0.010838164
132	0xbed17524	-0.40909684
133	0x3ee82e73	0.45347938
134	0x3f023f52	0.5087787
135	0xbde8780c	-0.11351022
136	0xbf552d8a	-0.8327261
137	0x3f107fa5	0.5644477
138	0xbee49725	-0.44646564
139	0xbe718372	-0.23585299
140	0xbdc14e88	-0.09438807
141	0xbeec667a	-0.46171933
142	0x3dd68166	0.104738995
143	0xbeeefd15	-0.4667746

pointwise_conv4.bias f4 [12]
0	0xb5a114b8	-1.2001465e-06
1	0xb7893de7	-1.6360498e-05
2	0x36e5d670	6.8496956e-06
3	0x38b8e682	8.816739e-05
4	0x3830e838	4.217794e-05
5	0xb66a070e	-3.4872824e-06
6	0xb85ed013	-5.312271e-05
7	0xb841b601	-4.618429e-05
8	0xb6423b68	-2.8942832e-06
9	0xb706153b	-7.9919655e-06
10	0x37fffccf	3.0516092e-05
11	0xb6c55721	-5.8812007e-06

bn4.weight f4 [12]
0	0x40361a51	2.8453562
1	0x40147656	2.3197227
2	0x40234b3e	2.5514674
3	0x401234fa	2.2844834
4	0x40192dc7	2.393419
5	0x401e6078	2.474638
6	0x4055ee41	3.3426669
7	0x4026c1be	2.605575
8	0x402926dd	2.642997
9	0x40165520	2.3489456
10	0x4013e41b	2.3107975
11	0x4014ec47	2.3269212

bn4.bias f4 [12]
0	0x3f172336	0.590381
1	0xbe6f016e	-0.23340389
2	0xbe131570	-0.14363647
3	0xbe8af981	-0.2714348
4	0xbe88ba72	-0.26704746
5	0xbf4cf317	-0.80058426
6	0xbf5dc98c	-0.8663566
7	0xbf4c5811	-0.7982188
8	0xbf9982b2	-1.199301
9	0xbed5a4c8	-0.4172728
10	0xbe460507	-0.19337855
11	0xbc868a8b	-0.016423484

bn4.running_mean f4 [12]
0	0xbf1def68	-0.6169343
1	0xbd9e9efb	-0.07745167
2	0xbf762d61	-0.9616299
3	0x3e1b77cf	0.15182422
4	0x3e359107	0.17731105
5	0x402f46d6	2.7386985
6	0x3e71602f	0.23571847
7	0xbf7fd7f1	-0.99938875
8	0xbeb4624b	-0.35231242
9	0xbef29e75	-0.47386518
10	0x4004c8d4	2.0747576
11	0xbf9d93db	-1.2310747

bn4.running_var f4 [12]
0	0x3f745a8d	0.9545067
1	0x3f01b679	0.50669056
2	0x3ed10b0d	0.40828744
3	0x3f035a5a	0.5130974
4	0x3eacd60c	0.33757055
5	0x3f14e94a	0.5816847
6	0x3f4a1ddc	0.7895181
7	0x3e914231	0.28370813
8	0x3f3a9ff2	0.7290031
9	0x3f14dc04	0.5814822
10	0x3ec6004a	0.38672096
11	0x3eb01863	0.34393606

fc1.weight f4 [9, 12]
0	0xbf1bcf12	-0.6086284
1	0xbf2e65ba	-0.6812397
2	0xbf0ac6c6	-0.54209554
3	0xbebee7de	-0.37286276
4	0xbf132664	-0.57480454
5	0xbe2c491b	-0.16824763
6	0xbeb863b9	-0.36013582
7	0xbeb79561	-0.35856155
8	0xbe956bb1	-0.29183725
9	0xbe28f15c	-0.16498321
10	0xbedac4a1	-0.4272814
11	0xbe9321c6	-0.28736705
12	0xbf72c956	-0.94838464
13	0x3ec236f9	0.37932566
14	0x3fb8dd11	1.4442464
15	0x3f258828	0.6466088
16	0xbec8d066	-0.39221495
17	0xbfca3946	-1.5798728
18	0x3fc48d65	1.535565
19	0xbfbfeeda	-1.4994767
20	0x3ebb2d75	0.36558118
21	0x3f0c936f	0.54912466
22	0xbee8b3d2	-0.45449692
23	0x3e85952b	0.2609037
24	0x3f376286	0.7163471
25	0x3f6e587d	0.9310377
26	0xbeba5fd5	-0.3640124
27	0xbee8f3be	-0.4549846
28	0xbf8bbfe6	-1.0917938
29	0x3f7fffd9	0.9999977
30	0xbf00169e	-0.5003451
31	0x3ec05a08	0.37568688
32	0xbf9b81db	-1.2149004
33	0x3ede9e05	0.43479934
34	0xbf46a285	-0.77591735
35	0x3f356db7	0.70870537
36	0xbf1435ec	-0.5789478
37	0x3f0b663e	0.54452884
38	0x3d715281	0.058916572
39	0xbfe12c7d	-1.7591702
40	0x3da08b06	0.078390166
41	0x3f381aab	0.7191569
42	0x3f62c7b6	0.88585985
43	0x3f928b10	1.1448689
44	0xbf786d99	-0.9704223
45	0xbf918647	-1.1369103
46	0x3e969e1c	0.29417503
47	0x3dd880fa	0.10571475
48	0x3f99bb10	1.2010212
49	0x3ee19444	0.4405843
50	0xbeec0c83	-0.46103296
51	0xbe921777	-0.28533527
52	0x3f91fa68	1.1404543
53	0xbf93325b	-1.1499742
54	0xbf863399	-1.0484496
55	0xbf961252	-1.1724341
56	0x3f4ad64f	0.7923326
57	0xbf989561	-1.1920587
58	0xbecd79cf	-0.40131995
59	0x3f874095	1.0566584
60	0xbf458715	-0.77159244
61	0xbf2301b8	-0.636745
62	0xbc2aeac6	-0.010431951
63	0x3efd30a8	0.49451184
64	0xbf16cb1d	-0.58903676
65	0xbefe1f9f	-0.496335
66	0x3fc8880c	1.5666518
67	0xbe56a2d2	-0.20960549
68	0x3d40729d	0.046984304
69	0x3f712802	0.9420167
70	0x3f8eda1a	1.1160309
71	0xbe574e55	-0.21025975
72	0x3f04afdf	0.5183086
73	0x3e168e91	0.14702822
74	0x3f2a4ce4	0.66523576
75	0x3eeee604	0.46659863
76	0xbef57f54	-0.47948706
77	0x3f4ec238	0.80765104
78	0xbfb378f8	-1.4021292
79	0x3da99db6	0.08282034
80	0x3fdb22e6	1.7120025
81	0xbeea6a0a	-0.45784026
82	0x3f557962	0.8338834
83	0xbfc10367	-1.5079163
84	0x3f58bfff	0.8466796
85	0xbefee679	-0.49785212
86	0x3ef02706	0.46904773
87	0xbea53e1d	-0.3227395
88	0x3f3c57bf	0.7357139
89	0x3d8efec7	0.06982189
90	0xbf8162d2	-1.0108283
91	0x3ef409b2	0.47663647
92	0xbfad362e	-1.3532159
93	0x3ee59504	0.44840252
94	0x3f5e5369	0.86846024
95	0xbff574e6	-1.91763
96	0xbf347fa4	-0.70507264
97	0xbfcaf302	-1.585541
98	0xbf95adff	-1.1693724
99	0x3f97f9a5	1.187306
100	0x3f4bc200	0.79592896
101	0x3faca72e	1.3488519
102	0x3dca406f	0.09875571
103	0x3f71ac05	0.94403106
104	0xbf8facc9	-1.1224605
105	0x3f2b3be2	0.6688825
106	0xbfac9e29	-1.3485767
107	0x3ef60af0	0.4805522

fc1.bias f4 [9]
0	0xbf00d6b7	-0.5032763
1	0xbe2e25fc	-0.17006677
2	0x3e5aa154	0.21350604
3	0x3ebf7574	0.37394297
4	0x3f31a8db	0.6939828
5	0x3f2b554b	0.6692702
6	0x3e768807	0.24075328
7	0xbe9c3e33	-0.30516204
8	0xbe07b7d7	-0.13253723
