saved_model/Conv2D_Voice_Model_float16.tflite (tflite, 9804 bytes, 16 tensors)

arith.constant f2 [6]
0.01979 0.10547 0.0012865 -0.0224 0.0515 0.009514
00000000: 1125 c02e 4515 bca5 982a df20

arith.constant1 f2 [6, 1, 80, 1]
0.386 -0.269 -0.67 -1.266 -0.4958 -0.1736 0.05048 0.5747
0.9355 0.9663 0.1785 0.2654 0.1484 -0.524 0.09 0.4302
0.4841 0.4119 0.2151 -1.012 -1.244 -1.186 -1.408 -0.4148
0.04025 1.012 1.594 1.4795 1.137 0.438 -0.3699 -1.056
-0.829 -1.226 0.0996 1.019 1.245 0.664 -0.3237 -0.8223
-1.986 -2.982 -3.104 -1.251 0.6343 1.764 3.594 3.795
3.47 1.946 0.622 -1.016 -2.188 -2.61 -2.176 -1.1455
-0.373 -0.229 -0.1665 0.4707 0.03114 -0.5244 -0.3472 -0.57
-0.0342 0.128 0.08606 0.682 1.186 0.9126 1.325 0.9644
0.428 0.305 -0.2688 -0.4578 -0.986 -1.807 -0.572 0.00482
-0.08923 -0.9297 -0.793 -0.5884 -1.488 -0.755 -0.46 0.0263
-0.2146 -0.2915 0.3835 0.1254 0.1041 0.43 0.5347 0.4285
0.272 -0.4922 -0.4985 -0.2362 -0.1964 -0.1395 -0.2137 -0.11584
-0.1433 -0.4946 0.1813 0.2498 0.371 0.2119 -0.1682 0.767
0.3945 -0.03546 0.477 0.3647 0.3792 0.537 0.3372 0.02318
0.5083 0.3403 0.3906 0.589 1.037 0.5806 0.1517 0.9434
0.488 0.6904 0.6724 0.272 0.254 -0.0932 0.2472 -0.836
-0.663 -0.751 -1.401 -0.1266 -0.4382 -0.2314 0.05872 0.3665
0.448 -0.4229 -0.1704 -0.6895 -0.4114 -0.2886 -0.541 -0.4072
-0.1068 -0.4878 -0.635 -0.10095 -0.3445 -1.037 -0.3967 -0.2274
-0.426 -5.27 8.664 -1.488 -6.934 9.08 -5.195 0.8057
3.504 -1.639 -4.812 0.7383 3.26 -2.855 5.652 -5.09
2.668 2.732 -11.945 7.816 5.76 -7.18 3.627 -1.395
-4.05 1.465 -0.2115 3.213 2.059 -6.18 5.97 0.1061
-5.05 -2.3 1.833 2.783 -2.805 5.055 0.697 -4.918
3.684 -3.219 -1.075 0.4138 0.3948 0.5635 -2.285 7.027
-4.688 4.645 -2.613 -5.715 2.102 1.547 -0.02348 -2.414
3.06 -0.0781 3.566 -1.404 -6.094 6.508 -7.45 -1.363
8.59 -2.084 3.006 -2.55 -1.676 -3.918 1.668 8.04
-9.11 3.164 4.11 -7.03 0.33 6.332 -2.785 -1.126
-1.043 -0.889 0.1859 -0.0811 0.632 1.263 0.938 0.9146
0.8574 0.0947 -0.5176 -0.7344 -1.01 -1.055 -0.3306 -0.501
00000000: 2d36 4eb4 5cb9 10bd efb7 8eb1 762a 9938
00000010: 7c3b bb3b b631 3f34 c030 31b8 c32d e236
00000020: bf37 9736 e232 0cbc fabc bebc a2bd a3b6
00000030: 2729 0c3c 603e eb3d 8c3c 0237 ebb5 39bc
00000040: a2ba e7bc 602e 133c fb3c 5039 2eb5 94ba
00000050: f2bf f7c1 35c2 01bd 1339 0e3f 3043 9743
00000060: f142 c93f fa38 10bc 60c0 38c1 5ac0 95bc
00000070: f8b5 54b3 54b1 8837 f927 32b8 8eb5 8fb8
00000080: 61a8 1930 822d 7539 be3c 4d3b 4d3d b73b
00000090: d936 e134 4db4 53b7 e3bb 3abf 93b8 f01c
000000a0: b6ad 70bb 58ba b5b8 f4bd 0aba 5cb7 bc26
000000b0: deb2 aab4 2336 0330 aa2e e136 4738 db36
000000c0: 5a34 e0b7 fab7 8fb3 49b2 77b0 d7b2 6aaf
000000d0: 96b0 eab7 cd31 fe33 f035 c832 62b1 233a
000000e0: 5036 8aa8 a237 d635 1136 4c38 6535 ef25
000000f0: 1138 7235 4036 b638 263c a538 db30 8c3b
00000100: cf37 8639 6139 5a34 1034 f7ad e933 b0ba
00000110: 4eb9 02ba 9bbd 0db0 03b7 68b3 842b dd35
00000120: 2b37 c4b6 74b1 84b9 95b6 9eb4 54b8 84b6
00000130: d6ae ceb7 14b9 76ae 83b5 26bc 59b6 47b3
00000140: d1b6 45c5 5548 f4bd efc6 8a48 32c5 723a
00000150: 0243 8ebe d0c4 e839 8542 b6c1 a745 17c5
00000160: 5641 7741 f9c9 d147 c345 2ec7 4143 94bd
00000170: 0dc4 dc3d c5b2 6d42 1e40 2ec6 f845 ca2e
00000180: 0dc5 9ac0 553f 9141 9cc1 0e45 9339 ebc4
00000190: 5e43 70c2 4dbc 9f36 5136 8238 92c0 0747
000001a0: b0c4 a544 3ac1 b7c5 3440 303e 03a6 d4c0
000001b0: 1f42 00ad 2243 9ebd 18c6 8246 73c7 74bd
000001c0: 4c48 2bc0 0342 1ac1 b4be d6c3 ac3e 0548
000001d0: 8ec8 5442 1c44 08c7 4835 5546 92c1 81bc
000001e0: 2cbc 1dbb f331 31ad 0e39 0d3d 813b 513b
000001f0: dc3a 102e 24b8 e0b9 0abc 38bc 4ab5 02b8

arith.constant6 f2 [9]
-0.5034 -0.17 0.2135 0.374 0.694 0.6694 0.2407 -0.3052
-0.1326
00000000: 07b8 71b1 d532 fc35 8d39 5b39 b433 e2b4
00000010: 3eb0

arith.constant8 f2 [1, 1, 3, 6]
-0.4487 0.1213 0.321 -0.4846 0.404 0.4685 -0.574 0.4814
0.3245 -0.6665 0.3982 0.5728 -0.4802 0.4204 0.3665 -0.558
0.483 0.3865
00000000: 2eb7 c32f 2335 c1b7 7736 7f37 98b8 b437
00000010: 3135 55b9 5f36 9538 afb7 ba36 dd35 77b8
00000020: ba37 2f36

arith.constant9 f2 [6, 1, 1, 6]
0.00665 0.1252 0.0635 -0.05765 0.1476 0.1703 0.5024 0.2776
0.1598 0.1641 -0.253 0.1473 0.151 -0.126 0.06097 0.1741
0.04886 0.0536 0.03915 -0.129 0.2137 0.0942 -0.2258 -0.2076
-0.00881 -0.0346 -0.986 -0.0294 -0.1821 -0.198 -0.03204 -0.01077
0.06696 -0.04105 -0.2583 -0.291
00000000: cf1e 0230 102c 61ab b930 7331 0538 7134
00000010: 1d31 4031 0cb4 b730 d530 08b0 ce2b 9231
00000020: 412a dc2a 0329 21b0 d732 072e 3ab3 a5b2
00000030: 83a0 6ea8 e3bb 87a7 d4b1 56b2 1aa8 84a1
00000040: 492c 41a9 22b4 a8b4

arith.constant10 f2 [1, 1, 3, 6]
0.5083 -0.2556 0.2255 -0.4885 -0.2607 0.281 -0.1071 -0.4358
0.703 -0.0935 -0.6807 0.51 -0.388 -0.92 0.4312 0.5845
-0.4138 0.2437
00000000: 1138 17b4 3733 d1b7 2cb4 7f34 dbae f9b6
00000010: a039 fcad 72b9 1438 35b6 5cbb e636 ad38
00000020: 9fb6 cc33

arith.constant11 f2 [12, 1, 1, 6]
2.436 1.728 -0.342 2.66 0.725 0.3828 0.07385 1.463
-0.576 -1.389 1.408 -1.064 -0.523 0.9185 0.2043 -0.6694
-2.74 0.5186 -0.1381 2.27 -0.1707 -0.6836 1.93 -0.538
-1.308 0.1722 2.229 -1.371 1.395 0.7773 -0.1431 0.1973
2.896 -0.8853 1.804 -1.943 -1.95 1.483 0.804 -3.684
-0.1893 1.985 0.03583 2.21 1.052 2.248 -1.263 1.652
-0.0637 0.4172 -1.048 -0.7803 0.318 -1.39 1.565 0.273
1.931 0.308 1.474 1.958 -0.4448 0.931 2.37 -0.962
2.023 -2.207 0.03928 2.174 -1.454 1.477 1.442 1.404
00000000: df40 e93e 79b5 5241 cd39 2036 ba2c da3d
00000010: 9cb8 8ebd a23d 42bc 2fb8 593b 8a32 5bb9
00000020: 7bc1 2638 6bb0 8a40 76b1 78b9 b83f 4eb8
00000030: 3bbd 8331 7540 7cbd 943d 383a 94b0 5032
00000040: cb41 15bb 373f c6bf cdbf ef3d 6f3a 5ec3
00000050: 0fb2 f13f 9628 6c40 353c 7f40 0dbd 9c3e
00000060: 14ac ad36 31bc 3eba 1735 8fbd 433e 5e34
00000070: b93f ee34 e53d d53f 1eb7 733b bd40 b2bb
00000080: 0c40 6ac0 0729 5940 d1bd e83d c53d 9e3d

arith.constant12 f2 [1, 1, 3, 12]
0.1108 -0.438 -0.404 -0.5435 -0.1687 0.05142 0.4526 0.07007
0.1985 0.07745 -0.10034 -0.843 0.699 -0.494 0.3154 0.605
-0.9214 -0.799 0.999 1.0625 -0.2837 0.5044 0.0928 0.2578
0.2471 0.362 -0.9814 0.4805 -0.45 0.07007 0.2795 0.00684
0.6543 1.1045 -0.692 -0.00712
00000000: 172f 02b7 77b6 59b8 66b1 952a 3e37 7c2c
00000010: 5a32 f52c 6cae beba 9839 e7b7 0c35 d738
00000020: 5fbb 64ba fe3b 403c 8ab4 0938 f02d 2034
00000030: e833 cb35 dabb b037 33b7 7c2c 7934 011f
00000040: 3c39 6b3c 89b9 4a9f

arith.constant13 f2 [12, 1, 1, 12]
-1.021 -1.523 1.055 -0.1561 0.693 0.2695 -1.511 -0.7925
1.368 -3.395 -0.5146 -1.001 0.511 -0.1904 1.286 -1.208
1.336 -0.7305 -0.88 4.47 0.503 -0.836 1.179 0.8804
0.003407 1.436 1.279 -0.03308 -1.369 1.051 -2.482 -1.15
-2.18 1.929 -1.662 -0.0675 0.407 1.971 0.8506 -0.6885
0.002668 1.71 0.0742 1.727 -0.4792 0.4153 -3.387 -0.6543
-0.2122 -0.3835 0.944 2.979 -0.4438 1.491 2.732 1.217
-2.758 -0.6294 0.2908 -0.4395 0.834 -1.384 -4.344 0.2328
0.4333 -1.534 -0.0919 0.1958 0.11597 0.4321 -0.3303 -2.123
2.363 -1.456 0.8213 0.005573 -1.094 2.059 -0.001003 2.434
-2.303 0.696 1.951 -0.9473 -3.14 1.663 2.584 1.917
5.35 0.9478 2.736 -0.738 -0.734 2.922 0.05014 0.05847
-0.7173 0.1897 0.3523 -1.218 0.6787 -1.453 -0.4966 -1.491
-1.202 1.549 1.415 -2.666 -0.4292 -0.1594 -0.6016 2.322
0.7153 -1.058 -2.445 -1.755 0.4841 -0.6772 -0.2476 1.613
-2.924 -1.572 -3.02 2.06 -0.12427 0.2668 0.453 2.36
0.888 3.307 -0.4893 0.04028 -1.623 1.799 2.02 -0.4504
-3.305 2.24 -1.771 -0.9355 -0.3745 -1.832 0.4155 -1.852
00000000: 16bc 18be 383c ffb0 8b39 5034 0bbe 57ba
00000010: 793d cac2 1eb8 01bc 1738 18b2 253d d5bc
00000020: 583d d8b9 0abb 7844 0638 b0ba b73c 0b3b
00000030: fa1a be3d 1e3d 3ca8 7abd 343c f7c0 9abc
00000040: 5cc0 b73f a6be 52ac 8336 e23f ce3a 82b9
00000050: 7719 d73e c02c e83e abb7 a536 c6c2 3cb9
00000060: cab2 23b6 8d3b f541 1ab7 f73d 7741 de3c
00000070: 84c1 09b9 a734 08b7 ac3a 89bd 58c4 7333
00000080: ef36 23be e2ad 4432 6c2f ea36 49b5 3fc0
00000090: ba40 d3bd 923a b51d 60bc 1e40 1c94 de40
000000a0: 9bc0 9139 ce3f 94bb 48c2 a73e 2b41 ab3f
000000b0: 5a45 953b 7941 e7b9 dfb9 d841 6b2a 7c2b
000000c0: bdb9 1232 a335 dfbc 6e39 d0bd f2b7 f7bd
000000d0: cfbc 323e a93d 55c1 deb6 1ab1 d0b8 a540
000000e0: b939 3bbc e4c0 05bf bf37 6bb9 ecb3 743e
000000f0: d9c1 4abe 0ac2 1f40 f4af 4534 3f37 b840
00000100: 1b3b 9d42 d4b7 2829 7ebe 323f 0a40 35b7
00000110: 9cc2 7b40 16bf 7cbb feb5 54bf a636 68bf

arith.constant14 f2 [9, 12]
-0.6084 -0.681 -0.542 -0.3728 -0.5747 -0.1682 -0.36 -0.3586
-0.2917 -0.165 -0.4272 -0.2874 -0.948 0.3794 1.444 0.6465
-0.3923 -1.58 1.535 -1.499 0.3655 0.5493 -0.4546 0.261
0.7163 0.931 -0.364 -0.455 -1.092 1.0 -0.5005 0.3757
-1.215 0.4348 -0.776 0.7085 -0.579 0.5444 0.05893 -1.759
0.07837 0.719 0.8857 1.145 -0.97 -1.137 0.2942 0.1057
1.201 0.4407 -0.461 -0.2854 1.141 -1.15 -1.049 -1.173
0.7925 -1.192 -0.4014 1.057 -0.7715 -0.6367 -0.01043 0.4946
-0.589 -0.4963 1.566 -0.2096 0.047 0.942 1.116 -0.2102
0.518 0.147 0.665 0.4666 -0.4795 0.8076 -1.402 0.0828
1.712 -0.4578 0.834 -1.508 0.8467 -0.4978 0.469 -0.3228
0.736 0.0698 -1.011 0.4766 -1.354 0.4485 0.8687 -1.918
-0.705 -1.586 -1.169 1.1875 0.796 1.349 0.09875 0.944
-1.122 0.669 -1.349 0.4805
00000000: deb8 73b9 56b8 f7b5 99b8 62b1 c3b5 bdb5
00000010: abb4 48b1 d6b6 99b4 96bb 1236 c73d 2c39
00000020: 47b6 52be 243e ffbd d935 6538 46b7 2d34
00000030: bb39 733b d3b5 48b7 5ebc 003c 01b8 0336
00000040: dcbc f536 35ba ab39 a2b8 5b38 8b2b 09bf
00000050: 042d c139 163b 943c c3bb 8cbc b534 c42e
00000060: ce3c 0d37 60b7 91b4 903c 9abc 32bc b1bc
00000070: 573a c5bc 6cb6 3a3c 2cba 18b9 57a1 ea37
00000080: b6b8 f1b7 443e b5b2 042a 893b 773c bab2
00000090: 2538 b430 5239 7737 acb7 763a 9cbd 4d2d
000000a0: d93e 53b7 ac3a 08be c63a f7b7 8137 2ab5
000000b0: e339 782c 0bbc a037 6abd 2d37 f33a acbf
000000c0: a4b9 58be adbc c03c 5e3a 653d 522e 8d3b
000000d0: 7dbc 5a39 65bd b037

arith.constant15 f2 [6]
-0.0001403 -6.2e-06 1.47e-05 -8.16e-05 2.04e-05 -6.26e-06
00000000: 9988 6880 f700 5985 5601 6980

arith.constant16 f2 [6]
-7.13e-05 3.36e-05 -1.85e-05 -7.45e-05 -8.37e-05 0.0001034
00000000: ac84 3402 3681 e284 7c85 c706

arith.constant17 f2 [12]
-3.91e-05 -5.3e-06 -5.87e-05 4.447e-05 -2.58e-05 -4.613e-05 8.5e-06 0.00012046
-2.694e-05 6.28e-05 -2.265e-05 -9.36e-06
00000000: 9082 5980 d983 ea02 b181 0683 8f00 e507
00000010: c481 1e04 7c81 9d80

arith.constant18 f2 [6]
0.05325 0.0789 1.45 1.034 0.3088 1.241
00000000: d12a 0d2d cd3d 233c f134 f73c

arith.constant19 f2 [12]
0.352 3.232 -0.3242 2.24 -4.86 -2.549 -3.836 -3.395
3.992 -5.582 -0.92 2.678
00000000: a235 7742 30b5 7b40 dcc4 19c1 acc3 cac2
00000010: fc43 95c5 5cbb 5b41

arith.constant20 f2 [12]
2.387 0.01895 3.695 -0.7554 -0.997 -9.69 -1.753 4.09
-0.1087 1.042 -7.902 4.867
00000000: c640 da24 6443 0bba fabb d8c8 03bf 1744
00000010: f5ae 2b3c e7c7 de44
