saved_model/Conv2D_Voice_Model_ACC87%_float32.tflite (tflite, 10308 bytes, 10 tensors)

arith.constant f4 [12]
00000000: 8e40 9e3e c82d 65c0 6c6b 9cc0 a80b 54c0
00000010: 6b18 e13f 2eee d240 dd2b 813e 1cba b540
00000020: 0a44 9dc0 a5d3 52c0 59c6 5e40 8b5c 70c0
0.30908626 -3.5809193 -4.888113 -3.3132114 1.7585577 6.5915747 0.25228778 5.6789684
-4.9145555 -3.2941678 3.4808562 -3.7556484

arith.constant1 f4 [12]
00000000: b9e1 b33e 0415 403e 3c92 843f a5bc 00be
00000010: 7e93 703e 00ba d2ba 3c94 193f 014e c73e
00000020: 8214 933e d02e 12bd e9e4 913f 7a8c 663f
0.3513315 0.18758017 1.0357127 -0.12571962 0.23493764 -0.0016077161 0.5999181 0.389267
0.28726584 -0.035689175 1.1397983 0.900581

arith.constant2 f4 [6]
00000000: 0de5 6e3f 08ec a2be 1829 9a3e 0084 703c
00000010: e064 70bd 4d37 9abe
0.93318254 -0.31820703 0.30109477 0.014679909 -0.058689952 -0.30120316

arith.constant3 f4 [9, 12]
00000000: 375c 04c0 d678 08c0 b60b fdbf c294 ccbf
00000010: a965 6ebe ad5f 523e 27d9 52bf f0ef c93f
00000020: 79f8 a6bd 961d 2fbf 99f4 a83e 4904 15c0
00000030: 1fe8 3a3f 8794 71bf 4288 603f 8c98 eabe
00000040: f5c9 9ebf 03ac b73e 5a15 a3bf 8af0 de3e
00000050: a92c 59bf 7601 cf3f 163e e0be 01d4 0c3f
00000060: d8ad 153d f262 a8be edd6 493f 8591 e3bf
00000070: 5217 533f a785 a3bf 4dd8 afbe bd9b 29be
00000080: ef24 c43f 098d 8cbc ccb5 b63f 8f34 55bf
00000090: 0c5b 01c0 0a1a c5be 5307 f7bf 7b2c 0a3f
000000a0: 87cf 383e d1f9 db3e 5670 a3be f0bb f7bd
000000b0: 4922 5c3f 6a00 2a3f 8360 49bf 8148 4f3f
000000c0: af30 88bf dbe1 50be bdd9 963e 4616 9b3f
000000d0: 4834 943f 31e1 4cbf 05ca 8abf 858c 133e
000000e0: fe0a 17bf 1cdc 703f ee51 8f3f 1538 57bf
000000f0: 93c7 3b3f deb9 24bf 8048 3e3f ced6 29bf
00000100: f51d 94bf 3b75 7c3f 9e22 863e 13d5 bd3e
00000110: 6286 0c3f 3cdc 2ebf 8b42 84bf 9796 debd
00000120: 11af 74be b930 1040 43c0 dc3e 2053 9c3d
00000130: 06a8 85bf 64d6 88bf 8dac 853f 5e62 7a3e
00000140: e2f9 a3bd db43 08bf e4ae 903e 1f7a 69bf
00000150: d60c 653d 95cd 63bd 6279 b0bf 092a 1b3f
00000160: 79f7 3f3f 379b 9dbe c6d8 503f 83fb 57bd
00000170: f324 77bf 11d4 04bf 8009 9ebf 9dd7 fa3d
00000180: a14c b33e a6ad b93d acb8 c1be 1a15 133f
00000190: 39c7 2bbe 1e35 913f 75ad ff3e 4ba3 04c0
000001a0: f980 89bf 3d33 5bbf 470a 9abe 016b a13f
-2.0681283 -2.1323752 -1.9769199 -1.5982897 -0.23280968 0.2054431 -0.823626 1.5776348
-0.08152861 -0.6840452 0.32999113 -2.3283865 0.7301044 -0.9436726 0.8770791 -0.4581951
-1.2405382 0.35873422 -1.2740891 0.43542892 -0.8483377 1.6172321 -0.43797368 0.5501099
0.036542743 -0.3288799 0.78843576 -1.7778784 0.8245746 -1.2775162 -0.34344712 -0.16563316
1.5323771 -0.017157095 1.427423 -0.83283323 -2.021182 -0.3849643 -1.929911 0.5397412
0.18047915 0.42964032 -0.31921643 -0.12096393 0.85989815 0.6640688 -0.7866289 0.8097001
-1.0639857 -0.20398657 0.29462996 1.2116172 1.1578455 -0.80031115 -1.0842901 0.14409073
-0.5900115 0.9408586 1.1196878 -0.8406995 0.733514 -0.6434611 0.74329376 -0.6634339
-1.1571642 0.9861638 0.26198286 0.37076625 0.5489255 -0.683048 -1.0332807 -0.108685665
-0.23894908 2.2529738 0.43115434 0.07633042 -1.0441902 -1.0690427 1.0443283 0.24451587
-0.08006646 -0.5322854 0.2825843 -0.91201967 0.055920444 -0.05561598 -1.3787043 0.60611016
0.7498699 -0.30782482 0.8158077 -0.052730095 -0.96540755 -0.5188609 -1.2346649 0.12248156
0.350194 0.09066324 -0.37836206 0.57454073 -0.16775216 1.1344335 0.49937025 -2.0724666
-1.0742484 -0.8562506 -0.30085966 1.261078

arith.constant4 f4 [12, 1, 3, 12]
00000000: 7d97 093e 95c7 6abf a77a c03d 5a9c 643f
00000010: 7c9f 0e40 9361 863e 26a1 1bbf 00be f8bf
00000020: 472d 53be 1f56 cabf 46a8 81bf 98c0 5540
00000030: addd dcbf a5c4 47be 21a6 6d40 d60a 35be
00000040: 32a9 5d3f 7628 f9bf ff80 0ec0 fa11 5ebf
00000050: 9df7 8d3f 3894 50be b89b efbe ad35 f63f
00000060: 0e42 adbf 9d82 37bf 3d36 9fbf fce2 9ebe
00000070: da56 08bf 7a6c 183e ace9 603f 680b 27bf
00000080: 5736 973f 967e 2cbf 43f7 853f 67d2 a8c0
00000090: b109 fcbf 6f3e cbbd ada4 39c0 856e 35bc
000000a0: 1582 5d3e b81d a2bf 339f 2840 2410 bb3f
000000b0: 89f6 ca3f 70fc 01c0 d4bb 4540 25ad 32c0
000000c0: 72e6 0a3f 4045 a63f 0785 3f40 ffa1 583f
000000d0: 56a2 50c0 24ca 6cbf c6f9 94c0 313f 2abf
000000e0: d688 4640 1f35 25c0 8c38 52bf 81b9 b03f
000000f0: cb91 9240 6e11 95bf 3f23 653f d343 04c0
00000100: e7b0 0abf c53b 233f b33d 9bc0 8656 b43e
00000110: 0ea7 a8bf 21ae b83f 68c1 0f3e bf08 75be
00000120: 55b3 b93f 6f0f 73bf 3f14 fabf d0a6 ebbf
00000130: f222 c63e dd25 1d3f fd64 0fc0 0f21 a8bf
00000140: 3e7c 523f 587f 3840 dfcb a73f f106 c4bf
00000150: 9eac 75bf ef01 b2bf 714a 5b40 8514 f43e
00000160: 8c4a 283f bc98 443f 191d 86bf 9c8d f7bd
00000170: 2c14 2b3f 4ac8 46be 6359 5e3e 9e16 dd40
00000180: 68d4 5fbf d0ef 96c0 3a8e 773f af76 4a3f
00000190: cad1 87bf 3a8e 003e a40e 14bf bd74 cdbf
000001a0: cdc6 9dbe 6927 02bf 8a82 c53f 03aa fd3e
000001b0: 4738 1940 0e56 42bf cc4e dc3e 09e4 f3be
000001c0: 292d c83e c392 373f e703 883f 2113 02bf
000001d0: 763c 493e c6df 1340 1671 44bf 23dd 4b3c
000001e0: c3b2 cb3f 0aa3 37c0 2f92 823f 876a 42bf
000001f0: b52f 1640 86b4 643e 7c42 41c0 40f1 eabe
00000200: b0db 9d3f 9080 9240 a19d 12bf 98c1 99bf
00000210: 0230 b3bf 9a68 99bf 87e7 58be cab4 8abf
00000220: 8fb6 a9bf a520 a63e 2b61 ab3f 7df4 d63e
00000230: 2cab 2e3f 5547 99bf 7f46 3440 dcfe 42c0
00000240: 5828 91bf 748f bb3f e9dc fcbf 5a87 aabf
00000250: c72c 36bf a86c b6bf ee9e f23f ceb6 0f3f
00000260: 06d8 f03f 901a 6d3f f771 0cbe 96a3 87bf
00000270: 3369 ccbf 8aad e43f 2032 8abf 3aab c6bf
00000280: 697e 8b40 2582 13c0 0e1b 043f 9087 393f
00000290: a957 26c0 08cb a2be 47dc 0e3d a88a 09c0
000002a0: b358 81be e400 4b40 402e e8bd ab1e e3bf
000002b0: d32d 983f a865 02c0 c15f efbf 3015 503d
000002c0: dadd 01c0 8e00 d53f ff5c 613e 5f5a c03f
000002d0: 7d6a 91bf 62fc c63f a56c 00bf c650 ee3e
000002e0: 51d9 efbf 99f5 49bf 170e e7bf 257b 043f
000002f0: 1d13 413f 7935 733e e820 efbe 4cd1 983f
00000300: 91fe 96c0 e3a8 b33e 4ae8 f7bf 745a 96bf
00000310: 7d10 533e 770d 8a3f 0775 863f 25b0 3f3f
00000320: 4c18 ce3e 5611 91bc bbb2 57bf be1f 85bf
00000330: 202f 3f3f 846e 3bc0 3cc3 75bf 12db 07c0
00000340: 2051 fdbe 3cbb c83f dbe3 9a40 4a80 adbf
00000350: 4f04 c5bf f86e 1240 777d 09bf 41cd 6ebf
00000360: 2df3 263f e401 00bf 1eca 553f 62ac 1e40
00000370: 70f3 19bf 3852 123f b151 5840 2b1f 71be
00000380: db5b 35c0 fba8 5fbf 7ab0 1cbe 1c29 903f
00000390: f9e1 783e f862 0fbf a29b c73f 4510 96bf
000003a0: 0088 e9bf 681b df3e bb3b ca3e 28bb 2bc0
000003b0: 02f6 ee3f 9c49 e53f a1d7 a53f 4b43 99c0
000003c0: 451f c93f ad8d b4bf 2fc2 8240 5542 b13f
000003d0: e61e 2b40 6086 303f 2b58 38bb 02ce e23f
000003e0: 44f8 05c0 9d4d 693d 031c 6fc0 8db1 93bf
000003f0: 15eb b3be c2bc 99be b6bf 9fbf 405d 133f
0.13436694 -0.9171079 0.09398394 0.89301074 2.2284842 0.26246318 -0.6079277 -1.9432983
-0.2062274 -1.5807532 -1.0129478 3.33988 -1.725515 -0.19508608 3.7132647 -0.17679915
0.86586297 -1.9465473 -2.2266233 -0.8674618 1.109119 -0.20369041 -0.4679849 1.923513
-1.3535783 -0.71683675 -1.2438427 -0.3103255 -0.53257525 0.1488513 0.87856555 -0.6525178
1.1813458 -0.67380655 1.0466083 -5.275684 -1.9690458 -0.09924018 -2.900676 -0.011073713
0.21631654 -1.266532 2.6347167 1.4614301 1.5856487 -2.0310326 3.089589 -2.791818
0.5425788 1.2989883 2.9924943 0.84622186 -3.2599082 -0.9249594 -4.65549 -0.6650267
3.1021018 -2.5813673 -0.82117534 1.3806611 4.580297 -1.1645944 0.89506906 -2.0666397
-0.5417618 0.63763076 -4.8512816 0.35222262 -1.3175981 1.442814 0.14038622 -0.23929118
1.4507853 -0.94945425 -1.9537429 -1.8410282 0.38698536 0.613859 -2.2405388 -1.3135089
0.8222083 2.8827724 1.3109092 -1.5314618 -0.9596652 -1.390684 3.4264185 0.47671905
0.6573875 0.76795554 -1.047763 -0.12087557 0.66827655 -0.19412342 0.21713786 6.909011
-0.8743348 -4.716774 0.96701396 0.79087347 -1.0610898 0.12554255 -0.5783484 -1.6051251
-0.30815735 -0.50841385 1.5430462 0.4954377 2.39406 -0.7591256 0.43028867 -0.47634915
0.39096954 0.71708316 1.0626191 -0.5081044 0.1965197 2.310533 -0.76735055 0.01244286
1.5913929 -2.869326 1.0200862 -0.759438 2.3466618 0.22334489 -3.019683 -0.45887184
1.2332668 4.5781937 -0.5727177 -1.2012205 -1.3999026 -1.1985047 -0.2118207 -1.0836422
-1.3258837 0.3244678 1.3389028 0.41983405 0.6822994 -1.1974894 2.8168027 -3.0468054
-1.1340437 1.4653153 -1.9754916 -1.3322556 -0.71162075 -1.4251909 1.8954751 0.5613831
1.8815925 0.92618656 -0.13715349 -1.0596797 -1.5969604 1.786546 -1.0796547 -1.5521004
4.359181 -2.3048184 0.5160378 0.72472477 -2.5991004 -0.31795526 0.03487804 -2.149088
-0.25262985 3.1719294 -0.113369465 -1.7743734 1.1888984 -2.0374546 -1.8701097 0.050801456
-2.0291657 1.6640794 0.22008131 1.5027579 -1.1360623 1.5545771 -0.5016578 0.46546
-1.8738195 -0.7889038 -1.8051175 0.51750404 0.7541979 0.23750867 -0.46704793 1.1938872
-4.718575 0.35089788 -1.9367764 -1.1746354 0.20611759 1.0785359 1.0504464 0.7487815
0.40252912 -0.017708462 -0.84257096 -1.0400312 0.7468128 -2.9286203 -0.9600103 -2.122746
-0.49475956 1.5682139 4.8403144 -1.3554776 -1.539194 2.288023 -0.5370707 -0.9328194
0.65214807 -0.50002885 0.8351153 2.4792714 -0.6013708 0.57156706 3.379986 -0.23547046
-2.8337314 -0.8736722 -0.15301695 1.1262546 0.24304952 -0.5601039 1.559437 -1.1723715
-1.8244629 0.43575597 0.39498696 -2.683298 1.8668826 1.7913089 1.295643 -4.7894645
1.5712668 -1.4105736 4.086204 1.3848368 2.673761 0.6895504 -0.0028128724 1.7719119
-2.093278 0.056958783 -3.7360847 -1.1538559 -0.3514029 -0.30026823 -1.248038 0.57564163

arith.constant5 f4 [12, 1, 3, 6]
00000000: db31 063e 70b8 e0bd 6857 f1be 6b49 dfbe
00000010: 1907 c73e 74b2 103e a6fb b73e 4f91 86be
00000020: da1a f5bc 696e 1dbe f22c 67be 193a 40be
00000030: 9e9c ae3e 2919 0dbe ae4f 423e d1fe 5b3e
00000040: 0510 61be 9740 62be 635f f4bd fb5d 74bd
00000050: c4d5 603e 790d c8bd abc3 5c3e c356 743e
00000060: 5254 7ebd d8d7 5dbe f041 233e 71e5 fbbd
00000070: f6e1 afbd 28cb 683b 3825 62be 45a2 55bd
00000080: 968b 1ebe dbe0 3bbf 4851 39be caf2 07bd
00000090: a8a0 bfbe 98ab 4f3b 6dfb b5be a9b3 c5bd
000000a0: fb90 2dbd d12a db3d 8243 b6be 88fa 8dbe
000000b0: 93d0 633d f752 d3be 602b f3bc 6ab7 a33d
000000c0: 04c3 07bf 1c87 bfbd 3c30 163e 8014 febd
000000d0: c194 9ebd a853 ed3d bb56 123e e5ee 1bbe
000000e0: cad6 53bc 1cc9 8dbe 69a1 203c 0b45 243c
000000f0: 8f91 643d ea3d 02be 893c 023e 1649 34bd
00000100: 066f 66bc b196 37bd a2dc e6bd 8a64 e93d
00000110: 5b4a 3a3e 3471 073e 73b6 5b3c 9ced 193d
00000120: a2df d7bd e4d0 69ba 73e7 733e bbe8 1bbe
00000130: 907a 0b3d fac9 85bb 6ee4 9abd 1d0f 57be
00000140: 5e64 373e b7fa 48be 6d37 0bbe 77c9 473d
00000150: 7ec2 b4bd 3e42 6abe 9159 0d3e b518 95be
00000160: d25b eebd 7fbf 853e a1c0 17bf b557 ddbd
00000170: 0085 fb3d 0910 ab3e f7b6 df3e d1cb c83e
00000180: 5cf0 bfbc 94c7 e0be 8ffb b3bd 0a44 a43d
00000190: dabe d33d d419 e6bc a80a 4a3f 50ea 8ebe
000001a0: 52ed 7ebe d2b8 553c 8a8b 82bf eb0e d9be
000001b0: c73c b6bd 095a 37be 00b5 143e 0c11 883e
000001c0: 1052 073c cf1c e5bc 6986 e4bd fed3 c5be
000001d0: 307c e8bd 6e05 83bd a0cd 813d 9a97 d6be
000001e0: bd2e 00bf 7096 37be 7ae1 d5bd 5a1a 1b3e
000001f0: 0e1e 98bd 0155 34bf 8f72 01be 98d3 0cbe
00000200: bfb2 533d 6a1f 0e3e 6503 bd3d 1ffd ca3c
00000210: d4bb 8ebe 8b66 74be d440 0abc 3afb 4cbd
00000220: 537d 2d3b 16a1 5b3c 8496 33bf df6f 3ebe
00000230: 6529 363e c897 6fbd 6066 f03d fdaa abbd
00000240: 5531 cb3c 5267 ce3c f4b5 3dbc 3e3a 7a3e
00000250: 3e04 92bd 293c 68bc 3c20 ba3d 8f1c 59be
00000260: c0bc abbe da94 a93c f520 25be 7a1c 173e
00000270: f2a4 cbbe 9cdd 23be 1446 9ebe 9d0a b2bd
00000280: 0d3b 26be e294 aa3e deb3 bf3e 3bb4 a7be
00000290: 0165 7aba 6498 0a3d 2f92 00bf 962c 76bf
000002a0: 5c74 ca3e 45aa 04be b3e1 fc3b 8dd3 4ebd
000002b0: 0d32 dbbd 54ce bb3d a1ff 22bf 0628 ccbc
000002c0: 2af7 493d 27f5 343e 4aa6 353e 1d03 923e
000002d0: efeb 31bd b104 eabd 2ec0 373e 9fdf 783d
000002e0: d6db d2bd 8bcf b33c 90d8 80bc dfb8 d5bd
000002f0: 3bef ae3d cbe9 e13d 0b4d c5bd 93b6 96bd
00000300: e8f9 103d 0395 0dbe 5811 b5bd 12fd 0b3e
00000310: 1c71 31bd 8f25 ecbd 6e99 41be 905c 50be
00000320: 0c2d b4be 2a93 32bf 70bc d03c 6969 8bbe
00000330: 0f65 c6bd 50dd 5c3d adf5 1ebe b1b4 8bbe
00000340: 75c4 0c3e eaca fbbd 837b 89be 7b48 f0bd
00000350: 97bc e1be c213 873d 50af d43d 17b1 153e
0.13104956 -0.10972679 -0.47136998 -0.436107 0.38872603 0.14130574 0.3593418 -0.26282737
-0.02992003 -0.1537415 -0.22575739 -0.18772162 0.34103864 -0.13779129 0.18975708 0.21483923
-0.21978767 -0.22094952 -0.11932256 -0.05965994 0.21956545 -0.09768195 0.21559016 0.23861222
-0.062092133 -0.21664369 0.15943122 -0.12299622 -0.085880205 0.0035521481 -0.2208451 -0.052156705
-0.15482935 -0.7338998 -0.18097413 -0.033190526 -0.37427258 0.0031687971 -0.35543385 -0.09653408
-0.042374592 0.10701526 -0.3559838 -0.27730203 0.055618834 -0.41274235 -0.029683769 0.07993968
-0.53031945 -0.09351942 0.14666837 -0.12406254 -0.07743216 0.11588222 0.14290898 -0.1522785
-0.012929628 -0.27692497 0.009804108 0.010026227 0.055802878 -0.12718931 0.12718405 -0.044015013
-0.014064556 -0.044821445 -0.11272551 0.113961294 0.18192427 0.13226777 0.0134101985 0.037580118
-0.105407014 -0.0008919372 0.2381876 -0.15225498 0.03405243 -0.0040829154 -0.07563101 -0.21001859
0.17909381 -0.1962689 -0.13595362 0.048776116 -0.08826159 -0.22876832 0.13803698 -0.29120412
-0.11638607 0.26122662 -0.59278303 -0.108077444 0.12281227 0.3341067 0.4369428 0.39218
-0.023430042 -0.43902266 -0.08788215 0.0802079 0.103391364 -0.028088488 0.7892251 -0.2791314
-0.24895218 0.013044553 -1.0198834 -0.42394194 -0.08898311 -0.1790544 0.14522171 0.26575506
0.008259311 -0.027967839 -0.11158449 -0.386383 -0.11351812 -0.0639752 0.06338048 -0.41912538
-0.50071317 -0.17928481 -0.10443397 0.15146771 -0.074276075 -0.70442206 -0.12641357 -0.13752592
0.051684137 0.13879171 0.09229163 0.0247789 -0.27877676 -0.23867242 -0.008438308 -0.050044276
0.0026472404 0.013405105 -0.70151544 -0.18597363 0.17789228 -0.05849436 0.117382765 -0.08382223
0.024803797 0.025195751 -0.011579026 0.2443628 -0.071297154 -0.0141745 0.090881795 -0.212023
-0.33542442 0.02070086 -0.16125853 0.14756957 -0.3977428 -0.16002506 -0.3091284 -0.086934306
-0.16233464 0.33316714 0.37441915 -0.32754692 -0.0009551794 0.033836737 -0.5022306 -0.9616178
0.395419 -0.12955578 0.007717335 -0.05049472 -0.10702906 0.09170213 -0.6367131 -0.024921428
0.04930798 0.17671643 0.17739215 0.28518 -0.043437894 -0.11426676 0.17944404 0.060760137
-0.10295837 0.02194955 -0.015728265 -0.10435652 0.08541723 0.110309206 -0.096338354 -0.07359042
0.03539458 -0.13826375 -0.08841199 0.13670757 -0.04332076 -0.11530601 -0.18906185 -0.2034781
-0.35190618 -0.69755805 0.025480479 -0.2722886 -0.09687244 0.053921998 -0.15523405 -0.27286294
0.13746817 -0.12294562 -0.26852044 -0.117325746 -0.44089195 0.065955654 0.10385001 0.14618336

arith.constant6 f4 [6, 1, 3, 6]
00000000: 562b e2be 2bce 8cbd a985 e43b afbd ce3d
00000010: a102 9dbd a3b6 3ebe 8028 fcbe af3f b03d
00000020: 96ac d83d 5fbd 073e 3d36 afbd b553 bcbe
00000030: 2ff9 cabe ca4f eb3d eefd fb3c 22fe 153e
00000040: fe40 dcbc 12ca 9fbe 8fa0 b1bd 21cd 883b
00000050: 5242 153e f918 363c 8a18 643d ec19 ef3d
00000060: c5aa 53bd ffeb eb3c a61e 213e cae5 b73d
00000070: 8c96 a73d 9e65 c03d 7a1e b7bd 7f38 ac3d
00000080: f7c1 6b3d 03bf a93d 35b7 e13c 6d35 07bd
00000090: 45ab 8ebd c173 1bbe a469 6fbe 8a6a 933d
000000a0: bdeb 273e f27a d63c 2946 c9bc 0379 28be
000000b0: 879a a6be ffbf 883e d2e8 0b3f 472e d3ba
000000c0: d000 42bd 3cfc a5bd 00d6 2abe faff ce3d
000000d0: 7763 443e 6082 433b 7fe6 90bd ea3f c7be
000000e0: 4c93 3e3e a5c1 383e 6d57 553d 00e7 b1bd
000000f0: 4a66 afbc 2d96 acbd b6de 7a3e 0da6 343e
00000100: 0a60 e43d 92ac 41bc 4704 04bd 2d8b 2bbe
00000110: e063 3c3e 865c 153e 224b 293c b373 c4bc
00000120: a245 413d 9ae2 f1bc 8041 353c 24b0 0f3d
00000130: 3611 b13c f9f9 073e 2685 193e b517 debd
00000140: 4ab1 743b 0fe9 153c 26de 593d e423 3abd
00000150: 869d 4d3e 2e70 283d 4316 743d 8817 c5bc
00000160: 85d4 683c 4175 2c3d c7d2 a7bd f6c4 36be
00000170: 9e02 4a3c ac5b f13d 27e1 e2bc bf8c 0b3e
00000180: e212 90bd 6e7a 03bf 2f6d b33b e1c9 5c3e
00000190: b060 d8bd cbd2 293f aa35 8ebd b7e3 8cbe
000001a0: 84ba 19bd d702 503e 71bb 58be 70c6 033e
-0.44173688 -0.06875261 0.0069739413 0.10094773 -0.07666517 -0.18624358 -0.4924965 0.08605897
0.10579793 0.13255833 -0.08555267 -0.36782613 -0.39643237 0.11489828 0.030760732 0.14647725
-0.02688646 -0.31208855 -0.08673202 0.004174844 0.1457608 0.011114352 0.055687465 0.11674866
-0.05167653 0.028799055 0.15734348 0.08979376 0.081830114 0.09394382 -0.0894136 0.08409213
0.057558026 0.08288386 0.02755318 -0.033009935 -0.06966261 -0.15180875 -0.23380142 0.07198055
0.16398521 0.026181672 -0.024569588 -0.16452412 -0.3253977 0.2670898 0.5465213 -0.0016111814
-0.047364056 -0.081047505 -0.16683197 0.101074174 0.19178568 0.0029832348 -0.07075214 -0.3891595
0.18610877 0.1804262 0.05208533 -0.08686638 -0.02141108 -0.08427081 0.2449902 0.17641468
0.111511305 -0.011820929 -0.03223064 -0.1675231 0.18397474 0.14586076 0.010332854 -0.023980951
0.047185548 -0.029526997 0.01106298 0.03508009 0.021614652 0.13278951 0.14992198 -0.108443655
0.0037337118 0.009149804 0.053190373 -0.045444384 0.20079622 0.041122608 0.059591543 -0.024059072
0.014210825 0.04210401 -0.081944995 -0.17848572 0.012329726 0.11785063 -0.027695252 0.13627909
-0.070348516 -0.5135869 0.005475662 0.21561386 -0.10565317 0.6633727 -0.06943829 -0.27517483
-0.03753139 0.20313583 -0.21165253 0.12868667

model_4/output/Add/y f4 [9]
00000000: 55c6 b03f 1b8c 63be 640f 2e3e e670 f53e
00000010: c00b 1bbe cce2 bbbe 0d49 5c3d 26ff 12bf
00000020: d446 cd3e
1.3810526 -0.22221415 0.16998059 0.47937697 -0.15141201 -0.3669647 0.053780604 -0.57420576
0.400931

model_4/tf.nn.convolution/convolution f4 [6, 1, 80, 1]
00000000: cc14 85bf f31f 6040 4d17 89c0 bfdd cd3e
00000010: 01f0 4740 465b 9ac0 ff9c 3640 f3ec 5b3e
00000020: 3124 89c0 67c7 203e 3bdd 0340 d312 dfbf
00000030: dfc2 b0be 9b88 d0be fe62 bb3e f350 3240
00000040: 1842 2ac0 9d83 eabf 271f 7c40 bf35 44c0
00000050: 4c4b eebf 7d1f 3e40 f37d 26c0 7b5e ae3e
00000060: e1e2 f33f dc5a 003f d587 d1bf a7f4 8b3e
00000070: 89e7 283f 6190 9cbd c8fe 10bf 9ec4 133f
00000080: 48ae cb3e f63b debf 86a0 9240 9863 08c0
00000090: e59e 49bf 1d82 8640 b9c8 c7bf 8dc8 933f
000000a0: c4ac 973f 9fba b0be fc56 84bc 7365 1d3e
000000b0: 684d 863e 6d4d 893f 4826 d53f 7781 07c0
000000c0: d8ff f03f 5e08 e13f d88d 68c0 0da2 9c40
000000d0: c74c 3cbf 6bde 44c0 75cf 8c40 c205 4bc0
000000e0: 0540 3c40 c695 fa3c 8180 09c0 9621 0040
000000f0: 3ae2 20c0 7de2 a93f 3128 d7bf fdee 15c0
00000100: f19c d73f d4b1 9ebf c954 aabf 0a35 2a3f
00000110: 7734 a9bf 37e2 9abe 6968 9bbf 8c06 bb3f
00000120: 074f 57c0 b15c 463d c326 613f b9be dbbf
00000130: 268f 2340 966c e2bf 0735 f93e f5f4 b73e
00000140: a47c e3bd 8b2e a3be 3641 f53e ea24 143f
00000150: ed6d 833e 8013 a13e 612a ddbf f7fe b1bf
00000160: b1ca 9dbf 9d39 7dbe 5cf7 8b3f c798 d2bd
00000170: 7406 97be bd5b bdbd 4b94 ebbe 191b 603e
00000180: ecdf a43f ed75 1d3f 39f4 513f de46 283f
00000190: 8a72 e03e 6a44 5e3f 4c57 12bd 8841 01bf
000001a0: 1f9e 51be 1f37 733e 7ac6 1ebf 35cb f2be
000001b0: 8f26 6b3f a89c 0040 8e1d f63f 6345 383f
000001c0: fced 453f 4ad7 0bbe 1a8a fcbc 0495 cebe
000001d0: 4e71 48bf 165c d3be f414 af3e 7b54 173f
000001e0: abea a5bd 4de0 6e3f c3e4 7f3f 285f 29be
000001f0: 7c19 82be 9cf7 3bbf d528 59bf 9002 49bc
00000200: 1850 e8be 60ab 30bc 4192 243f 4608 2cbf
00000210: 1393 913e 4ca6 cc3e f7ce 53bf 1589 643f
00000220: 5aaf 6a3e 9361 803f 7d50 dc3f 4186 a03f
00000230: 8c01 073f 158f 1e3e 6822 8bbf 5679 88bf
00000240: d0e1 b73e 22f6 1abf b600 13be 8e02 123f
00000250: 9b4a 0e3f 7638 de3e 6d68 31bf 9023 133e
00000260: 4049 37bd f095 4cbf 1981 c7bd a09c 103f
00000270: a7e7 46bf 1b0d 46bf 906a 4d3f f65a 2140
00000280: 9e8b 023e 9521 53be 938b d3be eef2 3c3e
00000290: fc46 b13f 3152 173e d83b 0bbf 57a8 debf
000002a0: 6bae b9bf ee39 673d 7422 e93f aeb0 6640
000002b0: 2df3 a93f a13d 7abf 1b78 3fc0 5951 57c0
000002c0: 17a1 b0bf 79a1 973f 5f03 3340 461a f53f
000002d0: ba29 933e 40c1 25be 3c30 773e 9f0a e53c
000002e0: 15d0 21bf a4e4 b2bf 445a 02c0 fae2 04c0
000002f0: 3659 bd3e 9156 3d40 b9c0 4a40 7266 1040
00000300: 8f44 b03d 5e00 e7bf 4493 43c0 40c7 70c0
00000310: e74e a7bf 6ba5 863f 4d54 2240 a957 8440
00000320: 21cc 2c40 23e0 103f 34da 0dc0 a66b 5ac0
00000330: 0e2b 7ac0 09ce aebf e03c a13f c9f1 dc3f
00000340: 213d 3940 02b4 2340 8f5a 3a3f 8199 0d3e
00000350: ced6 5abf 4c64 1dc0 b712 4ac0 3ce1 08c0
00000360: f544 7ebe c461 d13f 51ba 3340 f742 2d40
00000370: b2c8 dc3f d54f 8c3e cd4b dbbf de52 cbbf
00000380: 461b 0cc0 2ba7 05c0 0525 64bd d18d f63f
00000390: b913 b93f 44a8 8c3f 5286 e63e 32b7 6cbf
000003a0: 8b7d 23bf fd6a 863e ab4c bfbc fefb 4f3e
000003b0: 4abd 1abd 5a99 13bf c756 81bf aef5 9f3f
000003c0: 892e 703e e5ee 523e 9689 3c3e c95c 1e3e
000003d0: 0905 743e 7082 243e bd40 843e c2a7 c43d
000003e0: bd29 8c3d 92d9 c8bc c6c5 14be d438 acbe
000003f0: e87b 22bf deac 25bf bc24 06bf bc91 e0be
-1.0396972 3.50195 -4.2840943 0.4020824 3.1240237 -4.823642 2.8533323 0.21477108
-4.285668 0.15701066 2.0603778 -1.742762 -0.34523675 -0.40729222 0.36598963 2.7861907
-2.660284 -1.8321415 3.9394014 -3.0657804 -1.8616729 2.970672 -2.6014373 0.34056458
1.9053613 0.5013864 -1.6369578 0.27335092 0.65978295 -0.076447256 -0.56638765 0.5772189
0.39781404 -1.7362049 4.582095 -2.1310787 -0.7875808 4.203383 -1.5608131 1.1545578
1.1849599 -0.3451738 -0.016154759 0.15370731 0.2623093 1.0726753 1.6652308 -2.117277
1.8828077 1.7580678 -3.6336575 4.8947816 -0.7355465 -3.0760753 4.4003243 -3.1722264
2.9414074 0.030588996 -2.1484683 2.00205 -2.5138078 1.3272244 -1.680914 -2.3427117
1.684477 -1.2398019 -1.3307124 0.6648718 -1.3219136 -0.30250713 -1.2141238 1.4611373
-3.3641984 0.04842824 0.8794977 -1.7167579 2.555612 -1.7689388 0.4867327 0.35929075
-0.11107758 -0.31871447 0.47901314 0.57868826 0.25669804 0.3146019 -1.7278558 -1.3905934
-1.2327482 -0.24729009 1.0934863 -0.10283046 -0.2949711 -0.09246013 -0.46011576 0.21885337
1.2880836 0.61508065 0.8201328 0.65733135 0.43837386 0.8682314 -0.035727784 -0.5049062
-0.20470475 0.23751496 -0.620216 -0.4742066 0.9185571 2.0095615 1.9227769 0.71980876
0.7731626 -0.13656345 -0.03082757 -0.40348065 -0.7829789 -0.41281193 0.34195673 0.5911328
-0.081014 0.93311006 0.9995844 -0.16540205 -0.25410068 -0.73424697 -0.8482793 -0.012268677
-0.45373607 -0.0107830465 0.64285666 -0.67200124 0.2843252 0.39970624 -0.8273768 0.8927167
0.22918454 1.0029777 1.7212063 1.2540971 0.52736735 0.15484269 -1.0869875 -1.0662029
0.3591447 -0.6053182 -0.1435574 0.5703515 0.5558259 0.4340245 -0.69299966 0.14369035
-0.04474759 -0.79916286 -0.0974142 0.5648899 -0.77697223 -0.7736375 0.80240726 2.5211768
0.12748572 -0.2061828 -0.41317424 0.18452045 1.3849788 0.14777447 -0.5438819 -1.7395123
-1.4506353 0.05645173 1.8213639 3.6045337 1.3277336 -0.9775029 -2.9917057 -3.36434
-1.3799161 1.1846153 2.7970808 1.9148643 0.28742772 -0.16187 0.24139494 0.027959166
-0.63208133 -1.3976026 -2.0367594 -2.0763535 0.36982125 2.9584086 3.1680129 2.2562528
0.086068265 -1.8046987 -3.0558634 -3.7621613 -1.3070954 1.0519232 2.5363953 4.1357007
2.699959 0.56592005 -2.216443 -3.4128203 -3.9088778 -1.3656627 1.2596703 1.7261287
2.894356 2.5578618 0.7279443 0.13828088 -0.85484016 -2.4592466 -3.1573923 -2.1387472
-0.24830993 1.6357961 2.8082469 2.7072122 1.7248747 0.27404657 -1.7132508 -1.5884664
-2.1891646 -2.0883281 -0.055699367 1.9262029 1.4459144 1.098885 0.45024353 -0.92467034
-0.6386344 0.262535 -0.023351988 0.20310971 -0.037778176 -0.5765587 -1.0104607 1.249685
0.23455252 0.20598944 0.1841186 0.15465082 0.23830046 0.16065383 0.2583064 0.0960231
0.068438984 -0.024517808 -0.1452857 -0.33637106 -0.63470316 -0.647169 -0.523998 -0.43861187

model_4/tf.nn.relu/Relu;model_4/tf.math.add/Add;model_4/tf.nn.convolution/convolution;model_4/tf.math.add/Add/y f4 [6]
00000000: dc4a 8e3d 3a72 bdbf 9bf4 323c ba78 1d3e
00000010: f47f 4d3a eb79 c13e
0.06947872 -1.4800484 0.010922576 0.15378085 0.0007839196 0.3778833
