saved_model/Conv2D_Voice_Model_ACC87%_float16.tflite (tflite, 8672 bytes, 10 tensors)

arith.constant f2 [6]
000000 72 2c ec bd 98 21 ec 30 6c 12 0c 36
       0.06946 -1.48 0.010925 0.1538 0.000784 0.378

arith.constant1 f2 [6, 1, 80, 1]
000000 29 bc 01 43 49 c4 6f 36 40 42 d3 c4 b5 41 df 32
       -1.04 3.502 -4.285 0.402 3.125 -4.824 2.854 0.2147
000010 49 c4 06 31 1f 40 f9 be 86 b5 84 b6 db 35 93 41
       -4.285 0.157 2.06 -1.743 -0.3452 -0.4072 0.366 2.787
000020 52 c1 54 bf e1 43 22 c2 72 bf f1 41 34 c1 73 35
       -2.66 -1.832 3.94 -3.066 -1.861 2.97 -2.602 0.3406
000030 9f 3f 03 38 8c be 60 34 47 39 e5 ac 88 b8 9e 38
       1.905 0.5015 -1.637 0.2734 0.6597 -0.0765 -0.5664 0.577
000040 5d 36 f2 be 95 44 43 c0 4d ba 34 44 3e be 9e 3c
       0.3977 -1.736 4.582 -2.13 -0.7876 4.203 -1.561 1.154
000050 bd 3c 86 b5 23 a4 eb 30 32 34 4a 3c a9 3e 3c c0
       1.185 -0.3452 -0.01616 0.1537 0.2622 1.072 1.665 -2.117
000060 88 3f 08 3f 44 c3 e5 44 e2 b9 27 c2 66 44 58 c2
       1.883 1.758 -3.633 4.895 -0.7354 -3.076 4.4 -3.172
000070 e2 41 d5 27 4c c0 01 40 07 c1 4f 3d b9 be af c0
       2.941 0.0306 -2.148 2.002 -2.514 1.327 -1.681 -2.342
000080 bd 3e f6 bc 53 bd 52 39 4a bd d7 b4 db bc d8 3d
       1.685 -1.24 -1.331 0.665 -1.322 -0.3025 -1.214 1.461
000090 ba c2 33 2a 09 3b de be 1c 41 13 bf ca 37 c0 35
       -3.363 0.04843 0.8794 -1.717 2.555 -1.769 0.4868 0.3594
0000a0 1c af 19 b5 aa 37 a1 38 1b 34 09 35 e9 be 90 bd
       -0.1111 -0.3186 0.479 0.5786 0.2566 0.3147 -1.728 -1.391
0000b0 ee bc ea b3 60 3c 95 ae b8 b4 eb ad 5d b7 01 33
       -1.232 -0.2473 1.094 -0.10284 -0.295 -0.09247 -0.4602 0.2189
0000c0 27 3d ec 38 90 3a 42 39 04 37 f2 3a 93 a8 0a b8
       1.288 0.615 0.8203 0.657 0.4385 0.868 -0.03574 -0.505
0000d0 8d b2 9a 33 f6 b8 96 b7 59 3b 05 40 b1 3f c2 39
       -0.2047 0.2375 -0.62 -0.474 0.9185 2.01 1.923 0.7197
0000e0 2f 3a 5f b0 e4 a7 75 b6 44 ba 9b b6 79 35 bb 38
       0.773 -0.1366 -0.03082 -0.4036 -0.783 -0.4128 0.342 0.5913
0000f0 2f ad 77 3b ff 3b 4b b1 11 b4 e0 b9 c9 ba 48 a2
       -0.081 0.933 0.9995 -0.1654 -0.2542 -0.7344 -0.848 -0.01227
000100 43 b7 85 a1 25 39 60 b9 8d 34 65 36 9e ba 24 3b
       -0.4539 -0.01078 0.643 -0.672 0.2844 0.3997 -0.827 0.8926
000110 55 33 03 3c e3 3e 04 3d 38 38 f4 30 59 bc 44 bc
       0.2291 1.003 1.722 1.254 0.5273 0.1548 -1.087 -1.066
000120 bf 35 d8 b8 98 b0 90 38 72 38 f2 36 8b b9 99 30
       0.3591 -0.6055 -0.1436 0.5703 0.5557 0.434 -0.693 0.1437
000130 ba a9 65 ba 3c ae 85 38 37 ba 30 ba 6b 3a 0b 41
       -0.04474 -0.7993 -0.0974 0.565 -0.777 -0.7734 0.8022 2.521
000140 14 30 99 b2 9c b6 e8 31 8a 3d bb 30 5a b8 f5 be
       0.1274 -0.2062 -0.413 0.1846 1.385 0.1478 -0.544 -1.739
000150 cd bd 3a 2b 49 3f 36 43 50 3d d2 bb fc c1 bb c2
       -1.45 0.05646 1.821 3.605 1.328 -0.9775 -2.992 -3.365
000160 85 bd bd 3c 98 41 a9 3f 99 34 2e b1 ba 33 28 27
       -1.38 1.185 2.797 1.915 0.2874 -0.1619 0.2415 0.02795
000170 0f b9 97 bd 13 c0 27 c0 eb 35 eb 41 56 42 83 40
       -0.6323 -1.397 -2.037 -2.076 0.3699 2.959 3.168 2.256
000180 82 2d 38 bf 1d c2 86 c3 3a bd 35 3c 13 41 23 44
       0.08606 -1.805 -3.057 -3.762 -1.307 1.052 2.537 4.137
000190 66 41 87 38 6f c0 d3 c2 d1 c3 76 bd 0a 3d e8 3e
       2.7 0.566 -2.217 -3.412 -3.908 -1.365 1.26 1.727
0001a0 ca 41 1e 41 d3 39 6d 30 d7 ba eb c0 51 c2 47 c0
       2.895 2.559 0.728 0.1383 -0.855 -2.459 -3.158 -2.139
0001b0 f2 b3 8b 3e 9e 41 6a 41 e6 3e 62 34 da be 5b be
       -0.2483 1.636 2.809 2.707 1.725 0.274 -1.713 -1.589
0001c0 61 c0 2d c0 21 ab b4 3f c9 3d 65 3c 34 37 66 bb
       -2.19 -2.088 -0.0557 1.926 1.446 1.099 0.4502 -0.925
0001d0 1c b9 33 34 fa a5 80 32 d6 a8 9d b8 0b bc 00 3d
       -0.6387 0.2625 -0.02335 0.2031 -0.03778 -0.5767 -1.011 1.25
0001e0 81 33 97 32 e4 31 f3 30 a0 33 24 31 22 34 25 2e
       0.2345 0.2059 0.1841 0.1547 0.2383 0.1606 0.2583 0.096
0001f0 61 2c 47 a6 a6 b0 62 b5 14 b9 2d b9 31 b8 05 b7
       0.0684 -0.02452 -0.1453 -0.3364 -0.635 -0.647 -0.524 -0.4387

arith.constant6 f2 [9]
000000 86 3d 1c b3 70 31 ac 37 d8 b0 df b5 e2 2a 98 b8
       1.381 -0.2222 0.1699 0.4795 -0.1514 -0.367 0.05377 -0.574
000010 6a 36
       0.401

arith.constant8 f2 [6, 1, 3, 6]
000000 11 b7 66 ac 24 1f 76 2e e8 ac f6 b1 e1 b7 82 2d
       -0.4417 -0.0687 0.006973 0.10095 -0.07666 -0.1863 -0.4924 0.08606
000010 c5 2e 3e 30 7a ad e3 b5 58 b6 5a 2f e0 27 b0 30
       0.1058 0.1326 -0.0856 -0.368 -0.3965 0.11487 0.03076 0.1465
000020 e2 a6 fe b4 8d ad 46 1c aa 30 b1 21 21 2b 79 2f
       -0.02689 -0.312 -0.08673 0.004173 0.1458 0.011116 0.0557 0.11676
000030 9d aa 5f 27 09 31 bf 2d 3d 2d 03 2e b9 ad 62 2d
       -0.05167 0.0288 0.1573 0.0898 0.08185 0.09393 -0.0894 0.0841
000040 5e 2b 4e 2d 0e 27 3a a8 75 ac dc b0 7b b3 9b 2c
       0.05756 0.0829 0.02756 -0.03302 -0.06964 -0.1519 -0.2338 0.07196
000050 3f 31 b4 26 4a a6 44 b1 35 b5 46 34 5f 38 99 96
       0.164 0.02618 -0.02457 -0.1646 -0.3254 0.267 0.5464 -0.001611
000060 10 aa 30 ad 57 b1 78 2e 23 32 1c 1a 87 ac 3a b6
       -0.04736 -0.08105 -0.1669 0.1011 0.1918 0.002983 -0.07074 -0.3892
000070 f5 31 c6 31 ab 2a 8f ad 7b a5 65 ad d7 33 a5 31
       0.1862 0.1804 0.0521 -0.08685 -0.02141 -0.0843 0.245 0.1764
000080 23 2f 0d a2 20 a8 5c b1 e3 31 ab 30 4a 21 24 a6
       0.1115 -0.01182 -0.03223 -0.1675 0.184 0.1459 0.01033 -0.02399
000090 0a 2a 8f a7 aa 21 7e 28 89 25 40 30 cc 30 f1 ae
       0.04718 -0.02953 0.01106 0.0351 0.02162 0.1328 0.1499 -0.10846
0000a0 a6 1b af 20 cf 2a d1 a9 6d 32 44 29 a1 2b 29 a6
       0.003735 0.00915 0.0532 -0.04544 0.2008 0.04114 0.0596 -0.02406
0000b0 47 23 64 29 3f ad b6 b1 50 22 8b 2f 17 a7 5c 30
       0.01421 0.0421 -0.082 -0.1785 0.01233 0.11786 -0.0277 0.1362
0000c0 81 ac 1c b8 9b 1d e6 32 c3 ae 4f 39 72 ac 67 b4
       -0.0704 -0.5137 0.005474 0.2156 -0.10565 0.6636 -0.06946 -0.2751
0000d0 ce a8 80 32 c6 b2 1e 30
       -0.03754 0.2031 -0.2117 0.1287

arith.constant9 f2 [12, 1, 3, 6]
000000 32 30 06 af 8b b7 fa b6 38 36 86 30 c0 35 35 b4
       0.1311 -0.10974 -0.4714 -0.436 0.3887 0.1414 0.3594 -0.263
000010 a9 a7 eb b0 39 b3 02 b2 75 35 69 b0 12 32 e0 32
       -0.02992 -0.1537 -0.2257 -0.1877 0.341 -0.1378 0.1897 0.2148
000020 09 b3 12 b3 a3 af a3 ab 07 33 40 ae e6 32 a3 33
       -0.2198 -0.221 -0.1193 -0.05966 0.2196 -0.09766 0.2156 0.2386
000030 f3 ab ef b2 1a 31 df af 7f ad 46 1b 11 b3 ad aa
       -0.0621 -0.2167 0.1594 -0.123 -0.0859 0.003551 -0.2208 -0.05215
000040 f4 b0 df b9 cb b1 40 a8 fd b5 7d 1a b0 b5 2e ae
       -0.1548 -0.734 -0.181 -0.0332 -0.3743 0.003168 -0.3555 -0.09656
000050 6d a9 d9 2e b2 b5 70 b4 1f 2b 9b b6 99 a7 1e 2d
       -0.0424 0.107 -0.356 -0.2773 0.05563 -0.4128 -0.02968 0.07996
000060 3e b8 fc ad b2 30 f1 af f5 ac 6b 2f 93 30 df b0
       -0.5303 -0.0935 0.1467 -0.1241 -0.07745 0.1159 0.143 -0.1522
000070 9f a2 6e b4 05 21 22 21 25 2b 12 b0 12 30 a2 a9
       -0.01293 -0.2769 0.0098 0.010025 0.05582 -0.1272 0.1272 -0.044
000080 33 a3 bd a9 37 af 4b 2f d2 31 3c 30 de 22 cf 28
       -0.01406 -0.04483 -0.11273 0.11395 0.1819 0.1323 0.01341 0.03757
000090 bf ae 4f 93 9f 33 df b0 5c 28 2e 9c d7 ac b8 b2
       -0.1054 -0.000892 0.2382 -0.1522 0.03406 -0.00408 -0.0756 -0.21
0000a0 bb 31 48 b2 5a b0 3e 2a a6 ad 52 b3 6b 30 a9 b4
       0.1791 -0.1963 -0.136 0.04877 -0.08826 -0.2288 0.1381 -0.2913
0000b0 73 af 2e 34 be b8 eb ae dc 2f 59 35 fe 36 46 36
       -0.1164 0.2612 -0.593 -0.1081 0.1228 0.3342 0.437 0.392
0000c0 00 a6 06 b7 a0 ad 22 2d 9e 2e 31 a7 50 3a 77 b4
       -0.02344 -0.439 -0.0879 0.0802 0.1034 -0.02809 0.789 -0.279
0000d0 f7 b3 ae 22 14 bc c8 b6 b2 ad bb b1 a6 30 41 34
       -0.2489 0.01305 -1.02 -0.4238 -0.089 -0.1791 0.1453 0.2659
0000e0 3b 20 29 a7 24 af 2f b6 44 af 18 ac 0e 2c b5 b6
       0.00826 -0.02797 -0.1116 -0.3865 -0.1135 -0.06396 0.06335 -0.4192
0000f0 01 b8 bd b1 af ae d9 30 c1 ac a3 b9 0c b0 67 b0
       -0.5005 -0.1793 -0.10443 0.1515 -0.0743 -0.7046 -0.1265 -0.1376
000100 9e 2a 71 30 e8 2d 58 26 76 b4 a3 b3 52 a0 68 aa
       0.0517 0.1388 0.0923 0.02478 -0.2788 -0.2386 -0.00844 -0.05005
000110 6c 19 dd 22 9d b9 f3 b1 b1 31 7d ab 83 2f 5d ad
       0.002647 0.013405 -0.7017 -0.1859 0.1779 -0.0585 0.1174 -0.0838
000120 5a 26 73 26 ee a1 d2 33 90 ac 42 a3 d1 2d c9 b2
       0.02481 0.02519 -0.01158 0.2444 -0.0713 -0.014175 0.0909 -0.212
000130 5e b5 4d 25 29 b1 b9 30 5d b6 1f b1 f2 b4 90 ad
       -0.3354 0.0207 -0.1613 0.1476 -0.3977 -0.16 -0.309 -0.0869
000140 32 b1 55 35 fe 35 3e b5 d3 93 55 28 05 b8 b1 bb
       -0.1624 0.3333 0.3745 -0.3276 -0.000955 0.03384 -0.5024 -0.9614
000150 54 36 25 b0 e7 1f 77 aa da ae de 2d 18 b9 61 a6
       0.3955 -0.1295 0.007717 -0.0505 -0.10706 0.0917 -0.6367 -0.02492
000160 50 2a a8 31 ad 31 90 34 8f a9 50 af be 31 c7 2b
       0.04932 0.1768 0.1774 0.2852 -0.04343 -0.11426 0.1794 0.06076
000170 97 ae 9e 25 07 a4 ae ae 77 2d 0f 2f 2a ae b6 ac
       -0.10297 0.02194 -0.01573 -0.1044 0.0854 0.1103 -0.0963 -0.0736
000180 88 28 6d b0 a9 ad 60 30 8c a9 61 af 0d b2 83 b2
       0.0354 -0.1383 -0.08844 0.1367 -0.04333 -0.1153 -0.1891 -0.2035
000190 a1 b5 95 b9 86 26 5b b4 33 ae e7 2a f8 b0 5e b4
       -0.3518 -0.6978 0.02548 -0.2722 -0.09686 0.05392 -0.1553 -0.273
0001a0 66 30 de af 4c b4 82 af 0e b7 39 2c a5 2e ae 30
       0.1375 -0.1229 -0.2686 -0.1173 -0.441 0.066 0.1038 0.1462

arith.constant10 f2 [12, 1, 3, 12]
000000 4d 30 56 bb 04 2e 25 3b 75 40 33 34 dd b8 c6 bf
       0.1344 -0.917 0.094 0.893 2.229 0.2625 -0.608 -1.943
000010 99 b2 53 be 0d bc ae 42 e7 be 3e b2 6d 43 a8 b1
       -0.2062 -1.581 -1.013 3.34 -1.726 -0.1951 3.713 -0.1768
000020 ed 3a c9 bf 74 c0 f1 ba 70 3c 85 b2 7d b7 b2 3f
       0.8657 -1.946 -2.227 -0.8677 1.109 -0.2037 -0.468 1.924
000030 6a bd bc b9 fa bc f7 b4 43 b8 c3 30 07 3b 38 b9
       -1.354 -0.717 -1.244 -0.3103 -0.5327 0.1488 0.8784 -0.6523
000040 ba 3c 64 b9 30 3c 47 c5 e0 bf 5a ae cd c1 ab a1
       1.182 -0.674 1.047 -5.277 -1.969 -0.09924 -2.9 -0.01107
000050 ec 32 11 bd 45 41 d9 3d 58 3e 10 c0 2e 42 95 c1
       0.2163 -1.267 2.635 1.462 1.586 -2.031 3.09 -2.791
000060 57 38 32 3d fc 41 c5 3a 85 c2 66 bb a8 c4 52 b9
       0.5425 1.299 2.992 0.846 -3.26 -0.925 -4.656 -0.665
000070 34 42 2a c1 92 ba 86 3d 95 44 a9 bc 29 3b 22 c0
       3.102 -2.582 -0.8213 1.381 4.582 -1.165 0.895 -2.066
000080 56 b8 1a 39 da c4 a3 35 45 bd c5 3d 7e 30 a8 b3
       -0.542 0.6377 -4.85 0.3523 -1.317 1.442 0.1404 -0.2393
000090 ce 3d 98 bb d1 bf 5d bf 31 36 e9 38 7b c0 41 bd
       1.451 -0.949 -1.954 -1.841 0.387 0.614 -2.24 -1.313
0000a0 94 3a c4 41 3e 3d 20 be ad bb 90 bd da 42 a1 37
       0.8223 2.883 1.311 -1.531 -0.9595 -1.391 3.426 0.4768
0000b0 42 39 25 3a 31 bc bc af 59 39 36 b2 f3 32 e9 46
       0.657 0.768 -1.048 -0.12085 0.6685 -0.1941 0.2172 6.91
0000c0 ff ba b7 c4 bc 3b 54 3a 3f bc 04 30 a0 b8 6c be
       -0.8745 -4.715 0.967 0.791 -1.062 0.1255 -0.578 -1.605
0000d0 ee b4 11 b8 2c 3e ed 37 ca 40 13 ba e2 36 9f b7
       -0.308 -0.5083 1.543 0.4954 2.395 -0.7593 0.4302 -0.4763
0000e0 41 36 bd 39 40 3c 11 b8 4a 32 9f 40 24 ba 5f 22
       0.3909 0.7173 1.0625 -0.5083 0.1965 2.31 -0.7676 0.01244
0000f0 5e 3e bd c1 15 3c 13 ba b1 40 26 33 0a c2 58 b7
       1.592 -2.87 1.0205 -0.7593 2.346 0.2234 -3.02 -0.459
000100 ef 3c 94 44 95 b8 ce bc 9a bd cb bc c7 b2 56 bc
       1.233 4.58 -0.5728 -1.201 -1.4 -1.198 -0.2118 -1.084
000110 4e bd 31 35 5b 3d b8 36 75 39 ca bc a2 41 18 c2
       -1.326 0.3245 1.339 0.42 0.682 -1.197 2.816 -3.047
000120 89 bc dc 3d e7 bf 54 bd b1 b9 b3 bd 95 3f 7e 38
       -1.134 1.465 -1.976 -1.332 -0.7114 -1.425 1.8955 0.5615
000130 87 3f 69 3b 64 b0 3d bc 63 be 25 3f 52 bc 35 be
       1.882 0.9263 -0.1372 -1.06 -1.597 1.786 -1.08 -1.552
000140 5c 44 9c c0 21 38 cc 39 33 c1 16 b5 77 28 4c c0
       4.36 -2.305 0.516 0.7246 -2.6 -0.3179 0.03488 -2.148
000150 0b b4 58 42 41 af 19 bf c1 3c 13 c0 7b bf 81 2a
       -0.2527 3.172 -0.11334 -1.774 1.188 -2.037 -1.87 0.0508
000160 0f c0 a8 3e 0b 33 03 3e 8b bc 38 3e 03 b8 73 37
       -2.03 1.664 0.2201 1.503 -1.136 1.555 -0.5015 0.4656
000170 7f bf 50 ba 38 bf 24 38 09 3a 9a 33 79 b7 c7 3c
       -1.874 -0.789 -1.805 0.5176 0.7544 0.2375 -0.467 1.194
000180 b8 c4 9d 35 bf bf b3 bc 99 32 50 3c 34 3c fe 39
       -4.72 0.3508 -1.937 -1.175 0.2062 1.078 1.051 0.749
000190 71 36 89 a4 be ba 29 bc f9 39 db c1 ae bb 3f c0
       0.4026 -0.01772 -0.843 -1.04 0.7466 -2.928 -0.96 -2.123
0001a0 eb b7 46 3e d7 44 6c bd 28 be 93 40 4c b8 76 bb
       -0.4949 1.568 4.84 -1.355 -1.539 2.287 -0.537 -0.9326
0001b0 38 39 00 b8 ae 3a f5 40 d0 b8 93 38 c3 42 89 b3
       0.6523 -0.5 0.835 2.479 -0.6016 0.572 3.38 -0.2355
0001c0 ab c1 fd ba e6 b0 81 3c c7 33 7b b8 3d 3e b1 bc
       -2.834 -0.8735 -0.1531 1.126 0.243 -0.56 1.56 -1.173
0001d0 4c bf f9 36 52 36 5e c1 78 3f 2a 3f 2f 3d ca c4
       -1.824 0.4358 0.395 -2.684 1.867 1.791 1.296 -4.79
0001e0 49 3e a4 bd 16 44 8a 3d 59 41 84 39 c3 99 16 3f
       1.571 -1.41 4.086 1.385 2.674 0.6895 -0.002813 1.771
0001f0 30 c0 4a 2b 79 c3 9e bc 9f b5 ce b4 fe bc 9b 38
       -2.094 0.05695 -3.736 -1.154 -0.3513 -0.3003 -1.248 0.5757

arith.constant11 f2 [9, 12]
000000 23 c0 44 c0 e8 bf 65 be 73 b3 93 32 97 ba 4f 3e
       -2.068 -2.133 -1.977 -1.599 -0.2328 0.2054 -0.8237 1.577
000010 38 ad 79 b9 48 35 a8 c0 d7 39 8d bb 04 3b 55 b7
       -0.08154 -0.684 0.33 -2.328 0.73 -0.944 0.877 -0.4583
000020 f6 bc bd 35 19 bd f8 36 c9 ba 78 3e 02 b7 67 38
       -1.24 0.3586 -1.274 0.4355 -0.848 1.617 -0.438 0.5503
000030 ad 28 43 b5 4f 3a 1d bf 99 3a 1c bd 7f b5 4d b1
       0.03653 -0.3289 0.7886 -1.778 0.8247 -1.277 -0.3435 -0.1656
000040 21 3e 64 a4 b6 3d aa ba 0b c0 29 b6 b8 bf 51 38
       1.532 -0.01715 1.428 -0.833 -2.021 -0.385 -1.93 0.5396
000050 c6 31 e0 36 1c b5 be af e1 3a 50 39 4b ba 7a 3a
       0.1804 0.4297 -0.3193 -0.121 0.86 0.664 -0.7866 0.8096
000060 42 bc 87 b2 b7 34 d9 3c a2 3c 67 ba 56 bc 9c 30
       -1.064 -0.204 0.2947 1.212 1.158 -0.8003 -1.084 0.144
000070 b8 b8 87 3b 7b 3c ba ba de 39 26 b9 f2 39 4f b9
       -0.59 0.941 1.12 -0.841 0.7334 -0.6436 0.743 -0.6636
000080 a1 bc e4 3b 31 34 ef 35 64 38 77 b9 22 bc f5 ae
       -1.157 0.9863 0.262 0.3708 0.549 -0.683 -1.033 -0.1087
000090 a5 b3 82 40 e6 36 e3 2c 2d bc 47 bc 2d 3c d3 33
       -0.2389 2.254 0.4312 0.07635 -1.044 -1.069 1.044 0.2445
0000a0 20 ad 42 b8 85 34 4c bb 28 2b 1e ab 84 bd d9 38
       -0.0801 -0.532 0.2825 -0.912 0.0559 -0.0556 -1.379 0.606
0000b0 00 3a ed b4 87 3a c0 aa b9 bb 27 b8 f0 bc d7 2f
       0.75 -0.3079 0.816 -0.05273 -0.9653 -0.519 -1.234 0.1225
0000c0 9a 35 cd 2d 0e b6 99 38 5e b1 8a 3c fd 37 25 c0
       0.35 0.09064 -0.3784 0.5747 -0.1677 1.135 0.4993 -2.072
0000d0 4c bc da ba d0 b4 0b 3d
       -1.074 -0.8564 -0.3008 1.261

arith.constant12 f2 [6]
000000 77 3b 17 b5 d1 34 84 23 83 ab d2 b4
       0.933 -0.318 0.301 0.01468 -0.0587 -0.3013

arith.constant13 f2 [12]
000000 9f 35 01 32 25 3c 06 b0 85 33 96 96 cd 38 3a 36
       0.3513 0.1876 1.036 -0.1257 0.235 -0.001608 0.6 0.3892
000010 99 34 91 a8 8f 3c 34 3b
       0.2874 -0.03568 1.14 0.9004

arith.constant14 f2 [12]
000000 f2 34 29 c3 e3 c4 a0 c2 09 3f 97 46 09 34 ae 45
       0.309 -3.58 -4.887 -3.312 1.759 6.59 0.2522 5.68
000010 ea c4 97 c2 f6 42 83 c3
       -4.914 -3.295 3.48 -3.756
