saved_model/Conv2D_Voice_Model_float32.tflite (tflite, 9952 bytes, 16 tensors)

arith.constant f4 [12]
00000000: 70c6 1840 2030 9b3c 8c8e 6c40 de5e 41bf
00000010: e24d 7fbf 78fc 1ac1 766c e0bf 7ae3 8240
00000020: 90ae debd 966c 853f 3ee3 fcc0 29c7 9b40
2.3871117 0.018943846 3.6962004 -0.7553538 -0.99728215 -9.686638 -1.75331 4.090268
-0.10873139 1.0423763 -7.9027395 4.8680615

arith.constant1 f4 [12]
00000000: 3048 b43e d4e3 4e40 7409 a6be e358 0f40
00000010: 0587 9bc0 fe2b 23c0 4274 75c0 8932 59c0
00000020: 698f 7f40 34aa b2c0 828e 6bbf 726e 2b40
0.35211325 3.2326555 -0.32429087 2.2398002 -4.860232 -2.54956 -3.8352208 -3.3937094
3.993128 -5.5832767 -0.92014325 2.678616

arith.constant2 f4 [6]
00000000: 4825 5a3d 749a a13d ba94 b93f f864 843f
00000010: 6628 9e3e a2ee 9e3f
0.05325821 0.07890788 1.4498513 1.0343313 0.30890197 1.2416575

arith.constant3 f4 [12]
00000000: 0ce9 23b8 44ae b2b6 9650 76b8 186e 3a38
00000010: 3f78 d8b7 2c94 41b8 88b3 0e37 4498 fc38
00000020: b815 e2b7 94bf 8338 4031 beb7 7cc8 1cb7
-3.907927e-05 -5.3251006e-06 -5.8726022e-05 4.444839e-05 -2.58052e-05 -4.615278e-05 8.50566e-06 0.00012044658
-2.6951413e-05 6.282251e-05 -2.2672699e-05 -9.3450035e-06

arith.constant4 f4 [6]
00000000: 7e81 95b8 d0ed 0c38 e2e4 9ab7 e633 9cb8
00000010: 9171 afb8 d5e9 d838
-7.1289935e-05 3.360008e-05 -1.8464812e-05 -7.4483265e-05 -8.365804e-05 0.00010343237

arith.constant5 f4 [6]
00000000: 571a 13b9 8fd8 d0b6 6ae1 7637 7b1e abb8
00000010: 44d2 aa37 800e d1b6
-0.00014028825 -6.224094e-06 1.4715226e-05 -8.159593e-05 2.0363492e-05 -6.2303734e-06

arith.constant6 f4 [9, 12]
00000000: 12cf 1bbf ba65 2ebf c6c6 0abf dee7 bebe
00000010: 6426 13bf 1b49 2cbe b963 b8be 6195 b7be
00000020: b16b 95be 5cf1 28be a1c4 dabe c621 93be
00000030: 56c9 72bf f936 c23e 11dd b83f 2888 253f
00000040: 66d0 c8be 4639 cabf 658d c43f daee bfbf
00000050: 752d bb3e 6f93 0c3f d2b3 e8be 2b95 853e
00000060: 8662 373f 7d58 6e3f d55f babe bef3 e8be
00000070: e6bf 8bbf d9ff 7f3f 9e16 00bf 085a c03e
00000080: db81 9bbf 059e de3e 85a2 46bf b76d 353f
00000090: ec35 14bf 3e66 0b3f 8152 713d 7d2c e1bf
000000a0: 068b a03d ab1a 383f b6c7 623f 108b 923f
000000b0: 996d 78bf 4786 91bf 1c9e 963e fa80 d83d
000000c0: 10bb 993f 4494 e13e 830c ecbe 7717 92be
000000d0: 68fa 913f 5b32 93bf 9933 86bf 5212 96bf
000000e0: 4fd6 4a3f 6195 98bf cf79 cdbe 9540 873f
000000f0: 1587 45bf b801 23bf c6ea 2abc a830 fd3e
00000100: 1dcb 16bf 9f1f febe 0c88 c83f d2a2 56be
00000110: 9d72 403d 0228 713f 1ada 8e3f 554e 57be
00000120: dfaf 043f 918e 163e e44c 2a3f 04e6 ee3e
00000130: 547f f5be 38c2 4e3f f878 b3bf b69d a93d
00000140: e622 db3f 0a6a eabe 6279 553f 6703 c1bf
00000150: ffbf 583f 79e6 febe 0627 f03e 1d3e a5be
00000160: bf57 3c3f c7fe 8e3d d262 81bf b209 f43e
00000170: 2e36 adbf 0495 e53e 6953 5e3f e674 f5bf
00000180: a47f 34bf 02f3 cabf ffad 95bf a5f9 973f
00000190: 00c2 4b3f 2ea7 ac3f 6f40 ca3d 05ac 713f
000001a0: c9ac 8fbf e23b 2b3f 299e acbf f00a f63e
-0.6086284 -0.6812397 -0.54209554 -0.37286276 -0.57480454 -0.16824763 -0.36013582 -0.35856155
-0.29183725 -0.16498321 -0.4272814 -0.28736705 -0.94838464 0.37932566 1.4442464 0.6466088
-0.39221495 -1.5798728 1.535565 -1.4994767 0.36558118 0.54912466 -0.45449692 0.2609037
0.7163471 0.9310377 -0.3640124 -0.4549846 -1.0917938 0.9999977 -0.5003451 0.37568688
-1.2149004 0.43479934 -0.77591735 0.70870537 -0.5789478 0.54452884 0.058916572 -1.7591702
0.078390166 0.7191569 0.88585985 1.1448689 -0.9704223 -1.1369103 0.29417503 0.10571475
1.2010212 0.4405843 -0.46103296 -0.28533527 1.1404543 -1.1499742 -1.0484496 -1.1724341
0.7923326 -1.1920587 -0.40131995 1.0566584 -0.77159244 -0.636745 -0.010431951 0.49451184
-0.58903676 -0.496335 1.5666518 -0.20960549 0.046984304 0.9420167 1.1160309 -0.21025975
0.5183086 0.14702822 0.66523576 0.46659863 -0.47948706 0.80765104 -1.4021292 0.08282034
1.7120025 -0.45784026 0.8338834 -1.5079163 0.8466796 -0.49785212 0.46904773 -0.3227395
0.7357139 0.06982189 -1.0108283 0.47663647 -1.3532159 0.44840252 0.86846024 -1.91763
-0.70507264 -1.585541 -1.1693724 1.187306 0.79592896 1.3488519 0.09875571 0.94403106
-1.1224605 0.6688825 -1.3485767 0.4805522

arith.constant7 f4 [12, 1, 1, 12]
00000000: 3db1 82bf 900a c3bf 54f3 863f ddd7 1fbe
00000010: cf62 313f 3708 8a3e 3d5a c1bf e2d0 4abf
00000020: 2b20 af3f 8e3e 59c0 5dca 03bf 3a1c 80bf
00000030: 0fd9 023f e502 43be 499f a43f 7a95 9abf
00000040: bff8 aa3f a506 3bbf b048 61bf fcf2 8e40
00000050: 7ab7 003f 26f1 55bf 7cee 963f 286a 613f
00000060: a23e 5f3b 8eb4 b73f 32c1 a33f af82 07bd
00000070: 3b34 afbf 8981 863f 21e3 1ec0 534e 93bf
00000080: ad7d 0bc0 62df f63f 43b6 d4bf 6833 8abd
00000090: 6250 d03e 4f46 fc3f 6fbc 593f 6a32 30bf
000000a0: 26df 2e3b bde2 da3f edf2 973d 5ef7 dc3f
000000b0: 5758 f5be 64ac d43e f8bf 58c0 d682 27bf
000000c0: bc38 59be 8a60 c4be a59a 713f 51af 3e40
000000d0: 0037 e3be 17d5 be3f 85dd 2e40 8ccf 9b3f
000000e0: e589 30c0 ac18 21bf 1ad2 943e 3b04 e1be
000000f0: 6579 553f 2e1e b1bf a609 8bc0 0463 6e3e
00000100: 18e8 dd3e e45c c4bf 6348 bcbd 7189 483e
00000110: fc8b ed3d d737 dd3e b229 a9be 57e8 07c0
00000120: d34b 1740 f659 babf f34f 523f 88a7 b63b
00000130: fbf7 8bbf 86c3 0340 4b8a 83ba 32c8 1b40
00000140: 8864 13c0 1920 323f afb9 f93f a37a 72bf
00000150: 770e 49c0 05ed d43f 675c 2540 1a6f f53f
00000160: 3441 ab40 bca8 723f 1629 2f40 56ed 3cbf
00000170: c4e2 3bbf a2f8 3a40 8960 4d3d 9f7d 6f3d
00000180: 9b91 37bf 0340 423e e065 b43e c3db 9bbf
00000190: b1b2 2d3f d9f9 b9bf 4f3f febe ede0 bebf
000001a0: c7d6 99bf a145 c63f 172a b53f a294 2ac0
000001b0: d1c9 dbbe 8c45 23be 280f 1abf 0c98 1440
000001c0: b414 373f a062 87bf 4c8f 1cc0 76a8 e0bf
000001d0: 15df f73e 1769 2dbf 1283 7dbe d77f ce3f
000001e0: be17 3bc0 8231 c9bf 8440 41c0 7ed1 0340
000001f0: 1d77 febd 69a0 883e b4e8 e73e 07fc 1640
00000200: 495d 633f c296 5340 3388 fabe 38f5 243d
00000210: ddc3 cfbf 2a4e e63f e531 0140 2b97 e6be
00000220: 9174 53c0 bd54 0f40 4abe e2bf db8f 6fbf
00000230: a9be bfbe 777d eabf aec5 d43e b70e edbf
-1.0210339 -1.5237598 1.0543008 -0.15609689 0.69291395 0.26959392 -1.5105664 -0.7922498
1.3681692 -3.394443 -0.51480657 -1.0008614 0.51112455 -0.19044073 1.286111 -1.2076867
1.3357161 -0.73057014 -0.8800154 4.467161 0.50279963 -0.8357109 1.179153 0.88052607
0.0034064432 1.4351976 1.2793334 -0.033083614 -1.3687814 1.0508281 -2.4826128 -1.1508278
-2.1795456 1.9286921 -1.6618122 -0.06748086 0.40686327 1.9708956 0.8505315 -0.68826926
0.00266833 1.7100445 0.07419381 1.726299 -0.4791896 0.41537774 -3.3867168 -0.65434015
-0.21213049 -0.38354903 0.94376594 2.9794505 -0.443779 1.490878 2.7322705 1.2172713
-2.7584164 -0.6292827 0.29066545 -0.4394854 0.8338836 -1.3837335 -4.344928 0.23279959
0.43341136 -1.5340848 -0.09193494 0.1958368 0.115989655 0.43206665 -0.33039623 -2.123556
2.364003 -1.4558704 0.8215324 0.0055741705 -1.0935053 2.0588088 -0.0010035721 2.434094
-2.303011 0.6958023 1.9509791 -0.9471838 -3.1415079 1.6634833 2.5837648 1.917453
5.3517094 0.9478872 2.7368827 -0.73799646 -0.7339289 2.9214253 0.05014089 0.05846941
-0.7170655 0.18969731 0.35233974 -1.2176441 0.67850786 -1.4529372 -0.49657676 -1.4912392
-1.201867 1.5489999 1.415347 -2.6653218 -0.4292741 -0.15944499 -0.60179377 2.3217802
0.71515965 -1.0576973 -2.4462461 -1.755141 0.48412386 -0.6773848 -0.2475703 1.6132764
-2.923324 -1.5718234 -3.0195627 2.0596614 -0.12425063 0.26684883 0.45294726 2.3591325
0.88814217 3.3060765 -0.48932037 0.04027292 -1.6231648 1.7992604 2.0186703 -0.45037207
-3.3039896 2.239547 -1.7714322 -0.9357888 -0.3745015 -1.8319539 0.41557068 -1.8520116

arith.constant8 f4 [1, 1, 3, 12]
00000000: 84e5 e23d 4b39 e0be c4dd cebe 4912 0bbf
00000010: bfc6 2cbe c2ad 523d 67bb e73e 2384 8f3d
00000020: 584e 4b3e 1894 9e3d e588 cdbd 99bc 57bf
00000030: 1cf2 323f e1e0 fcbe 7989 a13e 12e9 1a3f
00000040: b9dd 6bbf 0d8d 4cbf efcd 7f3f 8cf4 873f
00000050: 2e47 91be 1e18 013f 6aff bd3d e5fc 833e
00000060: 9502 7d3e 3c54 b93e cd43 7bbf 01fd f53e
00000070: cb50 e6be 2a8e 8f3d 551b 8f3e 702e e03b
00000080: 137c 273f 7667 8d3f 1216 31bf 4049 e9bb
0.11078933 -0.4379371 -0.4040357 -0.54324776 -0.1687269 0.05143524 0.45260164 0.07007625
0.19854105 0.077430904 -0.10035876 -0.8427215 0.6990068 -0.4939032 0.31550196 0.6051189
-0.92135197 -0.79902726 0.99923605 1.0621505 -0.28374618 0.50427425 0.09277232 0.2577888
0.24708016 0.36197078 -0.9815033 0.4804459 -0.44983515 0.070095375 0.2795054 0.0068414733
0.654237 1.1047199 -0.691743 -0.007119328

arith.constant9 f4 [12, 1, 1, 6]
00000000: 21e1 1b40 b12c dd3f 0222 afbe 833d 2a40
00000010: 2ba9 393f e0f3 c33e e731 973d 2e35 bb3f
00000020: e37e 13bf c2bd b1bf 6b3d b43f ae30 88bf
00000030: 95e8 05bf d81f 6b3f 343b 513e 8963 2bbf
00000040: ba6c 2fc0 cccd 043f df5b 0dbe 9a4e 1140
00000050: d1bc 2ebe abf1 2ebf 820e f73f 02b0 09bf
00000060: fd5c a7bf f458 303e fb9d 0e40 d081 afbf
00000070: cc70 b23f 7707 473f d783 12be 69f7 493e
00000080: 8a6b 3940 1599 62bf 51ed e63f 46c8 f8bf
00000090: 15ac f9bf 02d5 bd3f bbe5 4d3f fcb8 6bc0
000000a0: 47d8 41be 4a2b fe3f 8db9 123d b575 0d40
000000b0: 2ca0 863f 93dd 0f40 3fa3 a1bf 877d d33f
000000c0: 657f 82bd 07a8 d53e 7d25 86bf 39c8 47bf
000000d0: 43d8 a23e b3e8 b1bf b766 c83f 4fc2 8b3e
000000e0: c41d f73f 2fc4 9d3e 779d bc3f e693 fa3f
000000f0: 30b3 e3be 8250 6e3f 78ad 1740 af3e 76bf
00000100: 4275 0140 373b 0dc0 ffd4 203d 9719 0b40
00000110: 112f babf 7a0d bd3f 1398 b83f 07bf b33f
2.4356158 1.7279264 -0.34205633 2.6600044 0.72523755 0.38272 0.07382565 1.4625604
-0.5761549 -1.3886034 1.4081243 -1.0639856 -0.52308017 0.91845465 0.2043274 -0.66948754
-2.7410111 0.5187652 -0.13804577 2.2704225 -0.17064215 -0.68337506 1.9301302 -0.5378419
-1.3075253 0.17221433 2.2283924 -1.3711491 1.3940673 0.77745765 -0.14308105 0.19723286
2.8971887 -0.88514835 1.8041173 -1.9436119 -1.950564 1.483063 0.80428666 -3.6831656
-0.1893016 1.9856961 0.035821486 2.2103093 1.051763 2.2478988 -1.2627944 1.6522683
-0.06371955 0.41729757 -1.048019 -0.7803989 0.3180562 -1.3899139 1.5656346 0.27296683
1.9305959 0.3081374 1.4735554 1.9576385 -0.44472647 0.93091595 2.3699627 -0.961894
2.0227818 -2.2067392 0.03926563 2.1734369 -1.4545614 1.4769738 1.4421409 1.4042672

arith.constant10 f4 [1, 1, 3, 6]
00000000: 1e15 023f 50eb 82be e4e7 663e a620 fabe
00000010: 0a8c 85be 8ce2 8f3e 9069 dbbd f51f dfbe
00000020: f9f3 333f 8380 bfbd 4c48 2ebf 987e 023f
00000030: c0ab c6be 6677 6bbf f5cd dc3e cd97 153f
00000040: 79da d3be 8f76 793e
0.5081347 -0.25570154 0.22549397 -0.48853034 -0.26083404 0.2810253 -0.10713494 -0.4357907
0.7029415 -0.093506835 -0.68079066 0.50974417 -0.3880291 -0.9197906 0.43125883 0.58434755
-0.4137762 0.24361633

arith.constant11 f4 [6, 1, 1, 6]
00000000: b9e9 d93b ad3b 003e a0f2 813d 4b24 6cbd
00000010: d815 173e cd6a 2e3e 3b90 003f 9f26 8e3e
00000020: eaa1 233e 720a 283e 4787 81be f6eb 163e
00000030: 7fa2 1a3e eef7 00be f4c8 793d a03c 323e
00000040: 1d13 483d 2d83 5b3d 446d 203d e519 04be
00000050: f6d2 5a3e 02d0 c03d 5935 67be dc96 54be
00000060: 7d6b 10bc 7fba 0dbd 6869 7cbf 67d2 f0bc
00000070: 698c 3abe a3ce 4abe 2134 03bd 687a 30bc
00000080: 981b 893d 2a29 28bd 9a3b 84be a1f4 94be
0.0066501764 0.12522765 0.06345105 -0.0576518 0.14754426 0.17032929 0.5022008 0.2776384
0.15979734 0.16410235 -0.2529852 0.1473845 0.1510105 -0.12594578 0.06098266 0.17405939
0.048846353 0.053591896 0.039166704 -0.12900503 0.21369538 0.09414674 -0.22578944 -0.20760673
-0.00881469 -0.034601685 -0.9859834 -0.029397203 -0.18217625 -0.19805388 -0.032032136 -0.010771371
0.06694716 -0.041054882 -0.25826722 -0.29092887

arith.constant12 f4 [1, 1, 3, 6]
00000000: c5bc e5be 446b f83d a35a a43e 3e2f f8be
00000010: c8e6 ce3e 38d9 ef3e e2fd 12bf dd7c f63e
00000020: 7a19 a63e b5a9 2abf 9dde cb3e d993 123f
00000030: 80e2 f5be 334a d73e 7ea1 bb3e 72df 0ebf
00000040: 5f32 f73e 80d0 c53e
-0.44870582 0.12129834 0.321004 -0.48473543 0.40410447 0.46845412 -0.57418644 0.48142138
0.32441312 -0.666652 0.39818278 0.5725685 -0.48024368 0.42048797 0.36646646 -0.558097
0.48280618 0.38635635

model_4/output/Add/y f4 [9]
00000000: b7d6 00bf fc25 2ebe 54a1 5a3e 7475 bf3e
00000010: dba8 313f 4b55 2b3f 0788 763e 333e 9cbe
00000020: d7b7 07be
-0.5032763 -0.17006677 0.21350604 0.37394297 0.6939828 0.6692702 0.24075328 -0.30516204
-0.13253723

model_4/tf.nn.convolution/convolution f4 [6, 1, 80, 1]
00000000: ad99 c53e 52c8 89be 0c86 2bbf 1103 a2bf
00000010: bad9 fdbe e3bd 31be 0ab9 4e3d 6225 133f
00000020: 498c 6f3f 3e6f 773f 53c4 363e 77ef 873e
00000030: f505 183e 1515 06bf 3461 b83d 0043 dc3e
00000040: 09e3 f73e 3ee0 d23e d24e 5c3e 3376 81bf
00000050: c045 9fbf 75b2 97bf 044d b4bf 305b d4be
00000060: c1de 243d ad87 813f 27fb cb3f 5b6b bd3f
00000070: 858b 913f c448 e03e cd62 bdbe fa16 87bf
00000080: cf32 54bf e6de 9cbf 33fd cb3d 2668 823f
00000090: 945b 9f3f 3403 2a3f 5eb7 a5be a683 52bf
000000a0: b132 febf 42d9 3ec0 22a4 46c0 fb1c a0bf
000000b0: 4153 223f 98b1 e13f c2f7 6540 0eef 7240
000000c0: 5c24 5e40 6c1d f93f 1040 1f3f 2506 82bf
000000d0: 57fd 0bc0 7ef2 26c0 b93a 0bc0 ffa4 92bf
000000e0: 7807 bfbe 4f7f 6abe 587f 2abe 4603 f13e
000000f0: 962e ff3c 0734 06bf 8ccd b1be 7ce8 11bf
00000100: 2120 0cbd 9726 033e de43 b03d 71ad 2e3f
00000110: 91b8 973f 6097 693f 6ba8 a93f 0fe6 763f
00000120: f218 db3e 4b17 9c3e 3498 89be 815c eabe
00000130: 8f53 7cbf df32 e7bf ca50 12bf cbf6 9d3b
00000140: 72b7 b6bd 890d 6ebf 12f4 4abf af91 16bf
00000150: fb8a bebf 8e37 41bf 4d88 ebbe 488c d73c
00000160: 36c0 5bbe 5d45 95be ee6c c43e d362 003e
00000170: 423b d53d a224 dc3e 13ef 083f 3d65 db3e
00000180: f74c 8b3e 47fc fbbe 6f4c ffbe ffde 71be
00000190: 1c27 49be 56e9 0ebe 94e7 5abe dc35 edbd
000001a0: 1bb1 12be c83a fdbe b4ac 393e 11bf 7f3e
000001b0: 9e02 be3e 77fd 583e d03d 2cbe ee5b 443f
000001c0: 76f8 c93e 5247 11bd d235 f43e 55cc ba3e
000001d0: fd13 c23e b579 093f 66a9 ac3e 55e9 bd3c
000001e0: eb1e 023f 6539 ae3e 5b02 c83e 8ccf 163f
000001f0: e5b0 843f 2aa2 143f 8f63 1b3e 738f 713f
00000200: 1cd8 f93e a8ce 303f 6827 2c3f a436 8b3e
00000210: 2a02 823e 39dd bebd a625 7d3e d7f5 55bf
00000220: 40b3 29bf 0733 40bf a350 b3bf 8099 01be
00000230: dc66 e0be b504 6dbe 4974 703d 76a0 bb3e
00000240: 2d50 e53e 3974 d8be 0d85 2ebe c775 30bf
00000250: 0e9b d2be c8b2 93be 6182 0abf 7885 d0be
00000260: e9c5 dabd b5b4 f9be b67e 22bf b6ca cebd
00000270: 9f6f b0be 7ace 84bf 7512 cbbe 40e8 68be
00000280: f123 dabe 2593 a8c0 b49c 0a41 4e71 bebf
00000290: 55eb ddc0 3c43 1141 5b36 a6c0 834a 4e3f
000002a0: 4334 6040 d0b8 d1bf a9fa 99c0 3af8 3c3f
000002b0: 4c99 5040 f1c5 36c0 b9e3 b440 d4d0 a2c0
000002c0: 37c1 2a40 b2dc 2e40 2716 3fc1 f410 fa40
000002d0: 615f b840 89b2 e5c0 3426 6840 cf86 b2bf
000002e0: 0d91 81c0 b984 bb3f c3ab 58be 6398 4d40
000002f0: 6acc 0340 b3b5 c5c0 7a0e bf40 103d d93d
00000300: 08ac a1c0 634c 13c0 b1a9 ea3f 3919 3240
00000310: de7c 33c0 adb2 a140 3765 323f 9369 9dc0
00000320: e5c6 6b40 3d02 4ec0 03ab 89bf 92d7 d33e
00000330: 9b13 ca3e d735 103f 783b 12c0 30dd e040
00000340: cd09 96c0 15ae 9440 b133 27c0 34e2 b6c0
00000350: a978 0640 460d c63f 2c58 c0bc 3175 1ac0
00000360: ded0 4340 a7f2 9fbd ca31 6440 bcc4 b3bf
00000370: 1cf7 c2c0 8346 d040 ef53 eec0 e27f aebf
00000380: 6889 0941 2060 05c0 5657 4040 b335 23c0
00000390: 7f8d d6bf 19ba 7ac0 7f7e d53f a8aa 0041
000003a0: 37b2 11c1 eb81 4a40 7d78 8340 c9f4 e0c0
000003b0: d707 a93e 44a6 ca40 5035 32c0 9f13 90bf
000003c0: 8e8d 85bf d3a3 63bf a668 3e3e 2214 a6bd
000003d0: 42b1 213f 5aa9 a13f a921 703f 761a 6a3f
000003e0: d686 5b3f f702 c23d 8f77 04bf 2306 3cbf
000003f0: 5a3a 81bf 84f4 86bf 243c a9be b731 00bf
0.38593808 -0.26910645 -0.67001414 -1.2657186 -0.49580175 -0.17357592 0.050469436 0.57478917
0.93573433 0.9665412 0.17848329 0.26549885 0.14846022 -0.5237592 0.09002915 0.43019867
0.48415402 0.41186708 0.21514443 -1.0114197 -1.2443161 -1.1851336 -1.4086003 -0.4147582
0.040251497 1.011953 1.5936021 1.4798387 1.1370703 0.43805516 -0.36989442 -1.0553887
-0.8289003 -1.2255523 0.09960403 1.0188034 1.2449822 0.6641114 -0.3236646 -0.8223213
-1.985922 -2.9820104 -3.1037679 -1.2508844 0.63408285 1.7632322 3.593247 3.7958407
3.4709692 1.9462104 0.62207127 -1.0158125 -2.1873376 -2.6085505 -2.1754591 -1.1456603
-0.37310386 -0.22900127 -0.1665014 0.4707281 0.031150144 -0.5242314 -0.34727132 -0.5699537
-0.034210328 0.1280769 0.08606695 0.682334 1.18532 0.91246605 1.3254522 0.9644479
0.4279247 0.3048652 -0.26873934 -0.457737 -0.98565 -1.80624 -0.57154524 0.00482068
-0.08921708 -0.92989403 -0.7927867 -0.58816046 -1.4886163 -0.75475395 -0.46002427 0.026312009
-0.21460041 -0.29154482 0.38364357 0.12537698 0.10411693 0.429967 0.534898 0.42850676
0.27207157 -0.4921591 -0.49863002 -0.23620223 -0.19643825 -0.13956198 -0.21377403 -0.115825385
-0.14325373 -0.4945891 0.18132287 0.2497523 0.37111372 0.21190439 -0.16820455 0.76702774
0.39447373 -0.035468407 0.47697312 0.36484018 0.37905875 0.53701335 0.3372299 0.02318255
0.5082843 0.34028164 0.39064297 0.5891044 1.0366484 0.5805994 0.15174697 0.9435951
0.4879769 0.6906533 0.6724763 0.27190125 0.25392276 -0.093195386 0.24721393 -0.83578247
-0.6628914 -0.7507786 -1.4008983 -0.12656212 -0.43828475 -0.23146327 0.05870465 0.3664586
0.44787732 -0.4227617 -0.17042942 -0.68929714 -0.41133922 -0.28847337 -0.5410519 -0.4072683
-0.106822796 -0.4877068 -0.63474596 -0.10097258 -0.3446016 -1.0375512 -0.3966252 -0.22744846
-0.42605546 -5.267962 8.663258 -1.4878328 -6.934977 9.078915 -5.194135 0.80582446
3.5031898 -1.6384525 -4.811848 0.73816264 3.2593565 -2.8558314 5.652798 -5.0879917
2.668043 2.7322202 -11.942908 7.8145695 5.761643 -7.178044 3.6273317 -1.394739
-4.0489564 1.4649879 -0.21159272 3.212426 2.0593514 -6.17843 5.970517 0.1060735
-5.05225 -2.3015373 1.8333036 2.7827895 -2.8044963 5.053061 0.6968569 -4.9191375
3.6840146 -3.2188866 -1.0755314 0.41375405 0.39468083 0.56332153 -2.2848797 7.0270004
-4.6886964 4.6462502 -2.61253 -5.7151127 2.1011145 1.5472801 -0.023479544 -2.4134028
3.0596232 -0.07809954 3.565539 -1.4044414 -6.0926647 6.5086074 -7.447746 -1.3632777
8.596046 -2.083992 3.0053306 -2.5501525 -1.6761931 -3.9176085 1.6679229 8.041664
-9.1060095 3.1641796 4.108458 -7.029881 0.33013794 6.332796 -2.784504 -1.1255988
-1.0433824 -0.8892185 0.18594608 -0.08109309 0.631611 1.2629807 0.9380136 0.91446626
0.8575262 0.09473222 -0.5174493 -0.73446864 -1.0095932 -1.054337 -0.33053696 -0.5007586

model_4/tf.nn.relu/Relu;model_4/tf.math.add/Add;model_4/tf.nn.convolution/convolution;model_4/tf.math.add/Add/y f4 [6]
00000000: f226 a23c 5409 d83d 69a6 a83a 677a b7bc
00000010: c80c 533d c9e7 1b3c
0.019793961 0.10548654 0.0012866977 -0.022397233 0.05152586 0.009515711
