Weight/Onnx/Conv2D_Voice_Model.onnx (onnx, 8424 bytes, 16 tensors)

onnx::Conv_74 f4 [6, 1, 1, 80]
000000 ad 99 c5 3e 52 c8 89 be 0c 86 2b bf 11 03 a2 bf
       0.38593808 -0.26910645 -0.67001414 -1.2657186
000010 ba d9 fd be e3 bd 31 be 0a b9 4e 3d 62 25 13 3f
       -0.49580175 -0.17357592 0.050469436 0.57478917
000020 49 8c 6f 3f 3e 6f 77 3f 53 c4 36 3e 77 ef 87 3e
       0.93573433 0.9665412 0.17848329 0.26549885
000030 f5 05 18 3e 15 15 06 bf 34 61 b8 3d 00 43 dc 3e
       0.14846022 -0.5237592 0.09002915 0.43019867
000040 09 e3 f7 3e 3e e0 d2 3e d2 4e 5c 3e 33 76 81 bf
       0.48415402 0.41186708 0.21514443 -1.0114197
000050 c0 45 9f bf 75 b2 97 bf 04 4d b4 bf 30 5b d4 be
       -1.2443161 -1.1851336 -1.4086003 -0.4147582
000060 c1 de 24 3d ad 87 81 3f 27 fb cb 3f 5b 6b bd 3f
       0.040251497 1.011953 1.5936021 1.4798387
000070 85 8b 91 3f c4 48 e0 3e cd 62 bd be fa 16 87 bf
       1.1370703 0.43805516 -0.36989442 -1.0553887
000080 cf 32 54 bf e6 de 9c bf 33 fd cb 3d 26 68 82 3f
       -0.8289003 -1.2255523 0.09960403 1.0188034
000090 94 5b 9f 3f 34 03 2a 3f 5e b7 a5 be a6 83 52 bf
       1.2449822 0.6641114 -0.3236646 -0.8223213
0000a0 b1 32 fe bf 42 d9 3e c0 22 a4 46 c0 fb 1c a0 bf
       -1.985922 -2.9820104 -3.1037679 -1.2508844
0000b0 41 53 22 3f 98 b1 e1 3f c2 f7 65 40 0e ef 72 40
       0.63408285 1.7632322 3.593247 3.7958407
0000c0 5c 24 5e 40 6c 1d f9 3f 10 40 1f 3f 25 06 82 bf
       3.4709692 1.9462104 0.62207127 -1.0158125
0000d0 57 fd 0b c0 7e f2 26 c0 b9 3a 0b c0 ff a4 92 bf
       -2.1873376 -2.6085505 -2.1754591 -1.1456603
0000e0 78 07 bf be 4f 7f 6a be 58 7f 2a be 46 03 f1 3e
       -0.37310386 -0.22900127 -0.1665014 0.4707281
0000f0 96 2e ff 3c 07 34 06 bf 8c cd b1 be 7c e8 11 bf
       0.031150144 -0.5242314 -0.34727132 -0.5699537
000100 21 20 0c bd 97 26 03 3e de 43 b0 3d 71 ad 2e 3f
       -0.034210328 0.1280769 0.08606695 0.682334
000110 91 b8 97 3f 60 97 69 3f 6b a8 a9 3f 0f e6 76 3f
       1.18532 0.91246605 1.3254522 0.9644479
000120 f2 18 db 3e 4b 17 9c 3e 34 98 89 be 81 5c ea be
       0.4279247 0.3048652 -0.26873934 -0.457737
000130 8f 53 7c bf df 32 e7 bf ca 50 12 bf cb f6 9d 3b
       -0.98565 -1.80624 -0.57154524 0.00482068
000140 72 b7 b6 bd 89 0d 6e bf 12 f4 4a bf af 91 16 bf
       -0.08921708 -0.92989403 -0.7927867 -0.58816046
000150 fb 8a be bf 8e 37 41 bf 4d 88 eb be 48 8c d7 3c
       -1.4886163 -0.75475395 -0.46002427 0.026312009
000160 36 c0 5b be 5d 45 95 be ee 6c c4 3e d3 62 00 3e
       -0.21460041 -0.29154482 0.38364357 0.12537698
000170 42 3b d5 3d a2 24 dc 3e 13 ef 08 3f 3d 65 db 3e
       0.10411693 0.429967 0.534898 0.42850676
000180 f7 4c 8b 3e 47 fc fb be 6f 4c ff be ff de 71 be
       0.27207157 -0.4921591 -0.49863002 -0.23620223
000190 1c 27 49 be 56 e9 0e be 94 e7 5a be dc 35 ed bd
       -0.19643825 -0.13956198 -0.21377403 -0.115825385
0001a0 1b b1 12 be c8 3a fd be b4 ac 39 3e 11 bf 7f 3e
       -0.14325373 -0.4945891 0.18132287 0.2497523
0001b0 9e 02 be 3e 77 fd 58 3e d0 3d 2c be ee 5b 44 3f
       0.37111372 0.21190439 -0.16820455 0.76702774
0001c0 76 f8 c9 3e 52 47 11 bd d2 35 f4 3e 55 cc ba 3e
       0.39447373 -0.035468407 0.47697312 0.36484018
0001d0 fd 13 c2 3e b5 79 09 3f 66 a9 ac 3e 55 e9 bd 3c
       0.37905875 0.53701335 0.3372299 0.02318255
0001e0 eb 1e 02 3f 65 39 ae 3e 5b 02 c8 3e 8c cf 16 3f
       0.5082843 0.34028164 0.39064297 0.5891044
0001f0 e5 b0 84 3f 2a a2 14 3f 8f 63 1b 3e 73 8f 71 3f
       1.0366484 0.5805994 0.15174697 0.9435951
000200 1c d8 f9 3e a8 ce 30 3f 68 27 2c 3f a4 36 8b 3e
       0.4879769 0.6906533 0.6724763 0.27190125
000210 2a 02 82 3e 39 dd be bd a6 25 7d 3e d7 f5 55 bf
       0.25392276 -0.093195386 0.24721393 -0.83578247
000220 40 b3 29 bf 07 33 40 bf a3 50 b3 bf 80 99 01 be
       -0.6628914 -0.7507786 -1.4008983 -0.12656212
000230 dc 66 e0 be b5 04 6d be 49 74 70 3d 76 a0 bb 3e
       -0.43828475 -0.23146327 0.05870465 0.3664586
000240 2d 50 e5 3e 39 74 d8 be 0d 85 2e be c7 75 30 bf
       0.44787732 -0.4227617 -0.17042942 -0.68929714
000250 0e 9b d2 be c8 b2 93 be 61 82 0a bf 78 85 d0 be
       -0.41133922 -0.28847337 -0.5410519 -0.4072683
000260 e9 c5 da bd b5 b4 f9 be b6 7e 22 bf b6 ca ce bd
       -0.106822796 -0.4877068 -0.63474596 -0.10097258
000270 9f 6f b0 be 7a ce 84 bf 75 12 cb be 40 e8 68 be
       -0.3446016 -1.0375512 -0.3966252 -0.22744846
000280 f1 23 da be 25 93 a8 c0 b4 9c 0a 41 4e 71 be bf
       -0.42605546 -5.267962 8.663258 -1.4878328
000290 55 eb dd c0 3c 43 11 41 5b 36 a6 c0 83 4a 4e 3f
       -6.934977 9.078915 -5.194135 0.80582446
0002a0 43 34 60 40 d0 b8 d1 bf a9 fa 99 c0 3a f8 3c 3f
       3.5031898 -1.6384525 -4.811848 0.73816264
0002b0 4c 99 50 40 f1 c5 36 c0 b9 e3 b4 40 d4 d0 a2 c0
       3.2593565 -2.8558314 5.652798 -5.0879917
0002c0 37 c1 2a 40 b2 dc 2e 40 27 16 3f c1 f4 10 fa 40
       2.668043 2.7322202 -11.942908 7.8145695
0002d0 61 5f b8 40 89 b2 e5 c0 34 26 68 40 cf 86 b2 bf
       5.761643 -7.178044 3.6273317 -1.394739
0002e0 0d 91 81 c0 b9 84 bb 3f c3 ab 58 be 63 98 4d 40
       -4.0489564 1.4649879 -0.21159272 3.212426
0002f0 6a cc 03 40 b3 b5 c5 c0 7a 0e bf 40 10 3d d9 3d
       2.0593514 -6.17843 5.970517 0.1060735
000300 08 ac a1 c0 63 4c 13 c0 b1 a9 ea 3f 39 19 32 40
       -5.05225 -2.3015373 1.8333036 2.7827895
000310 de 7c 33 c0 ad b2 a1 40 37 65 32 3f 93 69 9d c0
       -2.8044963 5.053061 0.6968569 -4.9191375
000320 e5 c6 6b 40 3d 02 4e c0 03 ab 89 bf 92 d7 d3 3e
       3.6840146 -3.2188866 -1.0755314 0.41375405
000330 9b 13 ca 3e d7 35 10 3f 78 3b 12 c0 30 dd e0 40
       0.39468083 0.56332153 -2.2848797 7.0270004
000340 cd 09 96 c0 15 ae 94 40 b1 33 27 c0 34 e2 b6 c0
       -4.6886964 4.6462502 -2.61253 -5.7151127
000350 a9 78 06 40 46 0d c6 3f 2c 58 c0 bc 31 75 1a c0
       2.1011145 1.5472801 -0.023479544 -2.4134028
000360 de d0 43 40 a7 f2 9f bd ca 31 64 40 bc c4 b3 bf
       3.0596232 -0.07809954 3.565539 -1.4044414
000370 1c f7 c2 c0 83 46 d0 40 ef 53 ee c0 e2 7f ae bf
       -6.0926647 6.5086074 -7.447746 -1.3632777
000380 68 89 09 41 20 60 05 c0 56 57 40 40 b3 35 23 c0
       8.596046 -2.083992 3.0053306 -2.5501525
000390 7f 8d d6 bf 19 ba 7a c0 7f 7e d5 3f a8 aa 00 41
       -1.6761931 -3.9176085 1.6679229 8.041664
0003a0 37 b2 11 c1 eb 81 4a 40 7d 78 83 40 c9 f4 e0 c0
       -9.1060095 3.1641796 4.108458 -7.029881
0003b0 d7 07 a9 3e 44 a6 ca 40 50 35 32 c0 9f 13 90 bf
       0.33013794 6.332796 -2.784504 -1.1255988
0003c0 8e 8d 85 bf d3 a3 63 bf a6 68 3e 3e 22 14 a6 bd
       -1.0433824 -0.8892185 0.18594608 -0.08109309
0003d0 42 b1 21 3f 5a a9 a1 3f a9 21 70 3f 76 1a 6a 3f
       0.631611 1.2629807 0.9380136 0.91446626
0003e0 d6 86 5b 3f f7 02 c2 3d 8f 77 04 bf 23 06 3c bf
       0.8575262 0.09473222 -0.5174493 -0.73446864
0003f0 5a 3a 81 bf 84 f4 86 bf 24 3c a9 be b7 31 00 bf
       -1.0095932 -1.054337 -0.33053696 -0.5007586

onnx::Conv_75 f4 [6]
000000 f2 26 a2 3c 54 09 d8 3d 69 a6 a8 3a 67 7a b7 bc
       0.019793961 0.10548654 0.0012866977 -0.022397233
000010 c8 0c 53 3d c9 e7 1b 3c
       0.05152586 0.009515711

depthwise_conv2.weight f4 [6, 1, 1, 3]
000000 c5 bc e5 be e2 fd 12 bf 80 e2 f5 be 44 6b f8 3d
       -0.44870582 -0.57418644 -0.48024368 0.12129834
000010 dd 7c f6 3e 33 4a d7 3e a3 5a a4 3e 7a 19 a6 3e
       0.48142138 0.42048797 0.321004 0.32441312
000020 7e a1 bb 3e 3e 2f f8 be b5 a9 2a bf 72 df 0e bf
       0.36646646 -0.48473543 -0.666652 -0.558097
000030 c8 e6 ce 3e 9d de cb 3e 5f 32 f7 3e 38 d9 ef 3e
       0.40410447 0.39818278 0.48280618 0.46845412
000040 d9 93 12 3f 80 d0 c5 3e
       0.5725685 0.38635635

depthwise_conv2.bias f4 [6]
000000 57 1a 13 b9 8f d8 d0 b6 6a e1 76 37 7b 1e ab b8
       -0.00014028825 -6.224094e-06 1.4715226e-05 -8.159593e-05
000010 44 d2 aa 37 80 0e d1 b6
       2.0363492e-05 -6.2303734e-06

onnx::Conv_77 f4 [6, 6, 1, 1]
000000 b9 e9 d9 3b ad 3b 00 3e a0 f2 81 3d 4b 24 6c bd
       0.0066501764 0.12522765 0.06345105 -0.0576518
000010 d8 15 17 3e cd 6a 2e 3e 3b 90 00 3f 9f 26 8e 3e
       0.14754426 0.17032929 0.5022008 0.2776384
000020 ea a1 23 3e 72 0a 28 3e 47 87 81 be f6 eb 16 3e
       0.15979734 0.16410235 -0.2529852 0.1473845
000030 7f a2 1a 3e ee f7 00 be f4 c8 79 3d a0 3c 32 3e
       0.1510105 -0.12594578 0.06098266 0.17405939
000040 1d 13 48 3d 2d 83 5b 3d 44 6d 20 3d e5 19 04 be
       0.048846353 0.053591896 0.039166704 -0.12900503
000050 f6 d2 5a 3e 02 d0 c0 3d 59 35 67 be dc 96 54 be
       0.21369538 0.09414674 -0.22578944 -0.20760673
000060 7d 6b 10 bc 7f ba 0d bd 68 69 7c bf 67 d2 f0 bc
       -0.00881469 -0.034601685 -0.9859834 -0.029397203
000070 69 8c 3a be a3 ce 4a be 21 34 03 bd 68 7a 30 bc
       -0.18217625 -0.19805388 -0.032032136 -0.010771371
000080 98 1b 89 3d 2a 29 28 bd 9a 3b 84 be a1 f4 94 be
       0.06694716 -0.041054882 -0.25826722 -0.29092887

onnx::Conv_78 f4 [6]
000000 48 25 5a 3d 74 9a a1 3d ba 94 b9 3f f8 64 84 3f
       0.05325821 0.07890788 1.4498513 1.0343313
000010 66 28 9e 3e a2 ee 9e 3f
       0.30890197 1.2416575

depthwise_conv3.weight f4 [6, 1, 1, 3]
000000 1e 15 02 3f 90 69 db bd c0 ab c6 be 50 eb 82 be
       0.5081347 -0.10713494 -0.3880291 -0.25570154
000010 f5 1f df be 66 77 6b bf e4 e7 66 3e f9 f3 33 3f
       -0.4357907 -0.9197906 0.22549397 0.7029415
000020 f5 cd dc 3e a6 20 fa be 83 80 bf bd cd 97 15 3f
       0.43125883 -0.48853034 -0.093506835 0.58434755
000030 0a 8c 85 be 4c 48 2e bf 79 da d3 be 8c e2 8f 3e
       -0.26083404 -0.68079066 -0.4137762 0.2810253
000040 98 7e 02 3f 8f 76 79 3e
       0.50974417 0.24361633

depthwise_conv3.bias f4 [6]
000000 7e 81 95 b8 d0 ed 0c 38 e2 e4 9a b7 e6 33 9c b8
       -7.1289935e-05 3.360008e-05 -1.8464812e-05 -7.4483265e-05
000010 91 71 af b8 d5 e9 d8 38
       -8.365804e-05 0.00010343237

onnx::Conv_80 f4 [12, 6, 1, 1]
000000 21 e1 1b 40 b1 2c dd 3f 02 22 af be 83 3d 2a 40
       2.4356158 1.7279264 -0.34205633 2.6600044
000010 2b a9 39 3f e0 f3 c3 3e e7 31 97 3d 2e 35 bb 3f
       0.72523755 0.38272 0.07382565 1.4625604
000020 e3 7e 13 bf c2 bd b1 bf 6b 3d b4 3f ae 30 88 bf
       -0.5761549 -1.3886034 1.4081243 -1.0639856
000030 95 e8 05 bf d8 1f 6b 3f 34 3b 51 3e 89 63 2b bf
       -0.52308017 0.91845465 0.2043274 -0.66948754
000040 ba 6c 2f c0 cc cd 04 3f df 5b 0d be 9a 4e 11 40
       -2.7410111 0.5187652 -0.13804577 2.2704225
000050 d1 bc 2e be ab f1 2e bf 82 0e f7 3f 02 b0 09 bf
       -0.17064215 -0.68337506 1.9301302 -0.5378419
000060 fd 5c a7 bf f4 58 30 3e fb 9d 0e 40 d0 81 af bf
       -1.3075253 0.17221433 2.2283924 -1.3711491
000070 cc 70 b2 3f 77 07 47 3f d7 83 12 be 69 f7 49 3e
       1.3940673 0.77745765 -0.14308105 0.19723286
000080 8a 6b 39 40 15 99 62 bf 51 ed e6 3f 46 c8 f8 bf
       2.8971887 -0.88514835 1.8041173 -1.9436119
000090 15 ac f9 bf 02 d5 bd 3f bb e5 4d 3f fc b8 6b c0
       -1.950564 1.483063 0.80428666 -3.6831656
0000a0 47 d8 41 be 4a 2b fe 3f 8d b9 12 3d b5 75 0d 40
       -0.1893016 1.9856961 0.035821486 2.2103093
0000b0 2c a0 86 3f 93 dd 0f 40 3f a3 a1 bf 87 7d d3 3f
       1.051763 2.2478988 -1.2627944 1.6522683
0000c0 65 7f 82 bd 07 a8 d5 3e 7d 25 86 bf 39 c8 47 bf
       -0.06371955 0.41729757 -1.048019 -0.7803989
0000d0 43 d8 a2 3e b3 e8 b1 bf b7 66 c8 3f 4f c2 8b 3e
       0.3180562 -1.3899139 1.5656346 0.27296683
0000e0 c4 1d f7 3f 2f c4 9d 3e 77 9d bc 3f e6 93 fa 3f
       1.9305959 0.3081374 1.4735554 1.9576385
0000f0 30 b3 e3 be 82 50 6e 3f 78 ad 17 40 af 3e 76 bf
       -0.44472647 0.93091595 2.3699627 -0.961894
000100 42 75 01 40 37 3b 0d c0 ff d4 20 3d 97 19 0b 40
       2.0227818 -2.2067392 0.03926563 2.1734369
000110 11 2f ba bf 7a 0d bd 3f 13 98 b8 3f 07 bf b3 3f
       -1.4545614 1.4769738 1.4421409 1.4042672

onnx::Conv_81 f4 [12]
000000 30 48 b4 3e d4 e3 4e 40 74 09 a6 be e3 58 0f 40
       0.35211325 3.2326555 -0.32429087 2.2398002
000010 05 87 9b c0 fe 2b 23 c0 42 74 75 c0 89 32 59 c0
       -4.860232 -2.54956 -3.8352208 -3.3937094
000020 69 8f 7f 40 34 aa b2 c0 82 8e 6b bf 72 6e 2b 40
       3.993128 -5.5832767 -0.92014325 2.678616

depthwise_conv4.weight f4 [12, 1, 1, 3]
000000 84 e5 e2 3d 1c f2 32 3f 95 02 7d 3e 4b 39 e0 be
       0.11078933 0.6990068 0.24708016 -0.4379371
000010 e1 e0 fc be 3c 54 b9 3e c4 dd ce be 79 89 a1 3e
       -0.4939032 0.36197078 -0.4040357 0.31550196
000020 cd 43 7b bf 49 12 0b bf 12 e9 1a 3f 01 fd f5 3e
       -0.9815033 -0.54324776 0.6051189 0.4804459
000030 bf c6 2c be b9 dd 6b bf cb 50 e6 be c2 ad 52 3d
       -0.1687269 -0.92135197 -0.44983515 0.05143524
000040 0d 8d 4c bf 2a 8e 8f 3d 67 bb e7 3e ef cd 7f 3f
       -0.79902726 0.070095375 0.45260164 0.99923605
000050 55 1b 8f 3e 23 84 8f 3d 8c f4 87 3f 70 2e e0 3b
       0.2795054 0.07007625 1.0621505 0.0068414733
000060 58 4e 4b 3e 2e 47 91 be 13 7c 27 3f 18 94 9e 3d
       0.19854105 -0.28374618 0.654237 0.077430904
000070 1e 18 01 3f 76 67 8d 3f e5 88 cd bd 6a ff bd 3d
       0.50427425 1.1047199 -0.10035876 0.09277232
000080 12 16 31 bf 99 bc 57 bf e5 fc 83 3e 40 49 e9 bb
       -0.691743 -0.8427215 0.2577888 -0.007119328

depthwise_conv4.bias f4 [12]
000000 0c e9 23 b8 44 ae b2 b6 96 50 76 b8 18 6e 3a 38
       -3.907927e-05 -5.3251006e-06 -5.8726022e-05 4.444839e-05
000010 3f 78 d8 b7 2c 94 41 b8 88 b3 0e 37 44 98 fc 38
       -2.58052e-05 -4.615278e-05 8.50566e-06 0.00012044658
000020 b8 15 e2 b7 94 bf 83 38 40 31 be b7 7c c8 1c b7
       -2.6951413e-05 6.282251e-05 -2.2672699e-05 -9.3450035e-06

onnx::Conv_83 f4 [12, 12, 1, 1]
000000 3d b1 82 bf 90 0a c3 bf 54 f3 86 3f dd d7 1f be
       -1.0210339 -1.5237598 1.0543008 -0.15609689
000010 cf 62 31 3f 37 08 8a 3e 3d 5a c1 bf e2 d0 4a bf
       0.69291395 0.26959392 -1.5105664 -0.7922498
000020 2b 20 af 3f 8e 3e 59 c0 5d ca 03 bf 3a 1c 80 bf
       1.3681692 -3.394443 -0.51480657 -1.0008614
000030 0f d9 02 3f e5 02 43 be 49 9f a4 3f 7a 95 9a bf
       0.51112455 -0.19044073 1.286111 -1.2076867
000040 bf f8 aa 3f a5 06 3b bf b0 48 61 bf fc f2 8e 40
       1.3357161 -0.73057014 -0.8800154 4.467161
000050 7a b7 00 3f 26 f1 55 bf 7c ee 96 3f 28 6a 61 3f
       0.50279963 -0.8357109 1.179153 0.88052607
000060 a2 3e 5f 3b 8e b4 b7 3f 32 c1 a3 3f af 82 07 bd
       0.0034064432 1.4351976 1.2793334 -0.033083614
000070 3b 34 af bf 89 81 86 3f 21 e3 1e c0 53 4e 93 bf
       -1.3687814 1.0508281 -2.4826128 -1.1508278
000080 ad 7d 0b c0 62 df f6 3f 43 b6 d4 bf 68 33 8a bd
       -2.1795456 1.9286921 -1.6618122 -0.06748086
000090 62 50 d0 3e 4f 46 fc 3f 6f bc 59 3f 6a 32 30 bf
       0.40686327 1.9708956 0.8505315 -0.68826926
0000a0 26 df 2e 3b bd e2 da 3f ed f2 97 3d 5e f7 dc 3f
       0.00266833 1.7100445 0.07419381 1.726299
0000b0 57 58 f5 be 64 ac d4 3e f8 bf 58 c0 d6 82 27 bf
       -0.4791896 0.41537774 -3.3867168 -0.65434015
0000c0 bc 38 59 be 8a 60 c4 be a5 9a 71 3f 51 af 3e 40
       -0.21213049 -0.38354903 0.94376594 2.9794505
0000d0 00 37 e3 be 17 d5 be 3f 85 dd 2e 40 8c cf 9b 3f
       -0.443779 1.490878 2.7322705 1.2172713
0000e0 e5 89 30 c0 ac 18 21 bf 1a d2 94 3e 3b 04 e1 be
       -2.7584164 -0.6292827 0.29066545 -0.4394854
0000f0 65 79 55 3f 2e 1e b1 bf a6 09 8b c0 04 63 6e 3e
       0.8338836 -1.3837335 -4.344928 0.23279959
000100 18 e8 dd 3e e4 5c c4 bf 63 48 bc bd 71 89 48 3e
       0.43341136 -1.5340848 -0.09193494 0.1958368
000110 fc 8b ed 3d d7 37 dd 3e b2 29 a9 be 57 e8 07 c0
       0.115989655 0.43206665 -0.33039623 -2.123556
000120 d3 4b 17 40 f6 59 ba bf f3 4f 52 3f 88 a7 b6 3b
       2.364003 -1.4558704 0.8215324 0.0055741705
000130 fb f7 8b bf 86 c3 03 40 4b 8a 83 ba 32 c8 1b 40
       -1.0935053 2.0588088 -0.0010035721 2.434094
000140 88 64 13 c0 19 20 32 3f af b9 f9 3f a3 7a 72 bf
       -2.303011 0.6958023 1.9509791 -0.9471838
000150 77 0e 49 c0 05 ed d4 3f 67 5c 25 40 1a 6f f5 3f
       -3.1415079 1.6634833 2.5837648 1.917453
000160 34 41 ab 40 bc a8 72 3f 16 29 2f 40 56 ed 3c bf
       5.3517094 0.9478872 2.7368827 -0.73799646
000170 c4 e2 3b bf a2 f8 3a 40 89 60 4d 3d 9f 7d 6f 3d
       -0.7339289 2.9214253 0.05014089 0.05846941
000180 9b 91 37 bf 03 40 42 3e e0 65 b4 3e c3 db 9b bf
       -0.7170655 0.18969731 0.35233974 -1.2176441
000190 b1 b2 2d 3f d9 f9 b9 bf 4f 3f fe be ed e0 be bf
       0.67850786 -1.4529372 -0.49657676 -1.4912392
0001a0 c7 d6 99 bf a1 45 c6 3f 17 2a b5 3f a2 94 2a c0
       -1.201867 1.5489999 1.415347 -2.6653218
0001b0 d1 c9 db be 8c 45 23 be 28 0f 1a bf 0c 98 14 40
       -0.4292741 -0.15944499 -0.60179377 2.3217802
0001c0 b4 14 37 3f a0 62 87 bf 4c 8f 1c c0 76 a8 e0 bf
       0.71515965 -1.0576973 -2.4462461 -1.755141
0001d0 15 df f7 3e 17 69 2d bf 12 83 7d be d7 7f ce 3f
       0.48412386 -0.6773848 -0.2475703 1.6132764
0001e0 be 17 3b c0 82 31 c9 bf 84 40 41 c0 7e d1 03 40
       -2.923324 -1.5718234 -3.0195627 2.0596614
0001f0 1d 77 fe bd 69 a0 88 3e b4 e8 e7 3e 07 fc 16 40
       -0.12425063 0.26684883 0.45294726 2.3591325
000200 49 5d 63 3f c2 96 53 40 33 88 fa be 38 f5 24 3d
       0.88814217 3.3060765 -0.48932037 0.04027292
000210 dd c3 cf bf 2a 4e e6 3f e5 31 01 40 2b 97 e6 be
       -1.6231648 1.7992604 2.0186703 -0.45037207
000220 91 74 53 c0 bd 54 0f 40 4a be e2 bf db 8f 6f bf
       -3.3039896 2.239547 -1.7714322 -0.9357888
000230 a9 be bf be 77 7d ea bf ae c5 d4 3e b7 0e ed bf
       -0.3745015 -1.8319539 0.41557068 -1.8520116

onnx::Conv_84 f4 [12]
000000 70 c6 18 40 20 30 9b 3c 8c 8e 6c 40 de 5e 41 bf
       2.3871117 0.018943846 3.6962004 -0.7553538
000010 e2 4d 7f bf 78 fc 1a c1 76 6c e0 bf 7a e3 82 40
       -0.99728215 -9.686638 -1.75331 4.090268
000020 90 ae de bd 96 6c 85 3f 3e e3 fc c0 29 c7 9b 40
       -0.10873139 1.0423763 -7.9027395 4.8680615

onnx::MatMul_85 f4 [12, 9]
000000 12 cf 1b bf 56 c9 72 bf 86 62 37 3f ec 35 14 bf
       -0.6086284 -0.94838464 0.7163471 -0.5789478
000010 10 bb 99 3f 15 87 45 bf df af 04 3f ff bf 58 3f
       1.2010212 -0.77159244 0.5183086 0.8466796
000020 a4 7f 34 bf ba 65 2e bf f9 36 c2 3e 7d 58 6e 3f
       -0.70507264 -0.6812397 0.37932566 0.9310377
000030 3e 66 0b 3f 44 94 e1 3e b8 01 23 bf 91 8e 16 3e
       0.54452884 0.4405843 -0.636745 0.14702822
000040 79 e6 fe be 02 f3 ca bf c6 c6 0a bf 11 dd b8 3f
       -0.49785212 -1.585541 -0.54209554 1.4442464
000050 d5 5f ba be 81 52 71 3d 83 0c ec be c6 ea 2a bc
       -0.3640124 0.058916572 -0.46103296 -0.010431951
000060 e4 4c 2a 3f 06 27 f0 3e ff ad 95 bf de e7 be be
       0.66523576 0.46904773 -1.1693724 -0.37286276
000070 28 88 25 3f be f3 e8 be 7d 2c e1 bf 77 17 92 be
       0.6466088 -0.4549846 -1.7591702 -0.28533527
000080 a8 30 fd 3e 04 e6 ee 3e 1d 3e a5 be a5 f9 97 3f
       0.49451184 0.46659863 -0.3227395 1.187306
000090 64 26 13 bf 66 d0 c8 be e6 bf 8b bf 06 8b a0 3d
       -0.57480454 -0.39221495 -1.0917938 0.078390166
0000a0 68 fa 91 3f 1d cb 16 bf 54 7f f5 be bf 57 3c 3f
       1.1404543 -0.58903676 -0.47948706 0.7357139
0000b0 00 c2 4b 3f 1b 49 2c be 46 39 ca bf d9 ff 7f 3f
       0.79592896 -0.16824763 -1.5798728 0.9999977
0000c0 ab 1a 38 3f 5b 32 93 bf 9f 1f fe be 38 c2 4e 3f
       0.7191569 -1.1499742 -0.496335 0.80765104
0000d0 c7 fe 8e 3d 2e a7 ac 3f b9 63 b8 be 65 8d c4 3f
       0.06982189 1.3488519 -0.36013582 1.535565
0000e0 9e 16 00 bf b6 c7 62 3f 99 33 86 bf 0c 88 c8 3f
       -0.5003451 0.88585985 -1.0484496 1.5666518
0000f0 f8 78 b3 bf d2 62 81 bf 6f 40 ca 3d 61 95 b7 be
       -1.4021292 -1.0108283 0.09875571 -0.35856155
000100 da ee bf bf 08 5a c0 3e 10 8b 92 3f 52 12 96 bf
       -1.4994767 0.37568688 1.1448689 -1.1724341
000110 d2 a2 56 be b6 9d a9 3d b2 09 f4 3e 05 ac 71 3f
       -0.20960549 0.08282034 0.47663647 0.94403106
000120 b1 6b 95 be 75 2d bb 3e db 81 9b bf 99 6d 78 bf
       -0.29183725 0.36558118 -1.2149004 -0.9704223
000130 4f d6 4a 3f 9d 72 40 3d e6 22 db 3f 2e 36 ad bf
       0.7923326 0.046984304 1.7120025 -1.3532159
000140 c9 ac 8f bf 5c f1 28 be 6f 93 0c 3f 05 9e de 3e
       -1.1224605 -0.16498321 0.54912466 0.43479934
000150 47 86 91 bf 61 95 98 bf 02 28 71 3f 0a 6a ea be
       -1.1369103 -1.1920587 0.9420167 -0.45784026
000160 04 95 e5 3e e2 3b 2b 3f a1 c4 da be d2 b3 e8 be
       0.44840252 0.6688825 -0.4272814 -0.45449692
000170 85 a2 46 bf 1c 9e 96 3e cf 79 cd be 1a da 8e 3f
       -0.77591735 0.29417503 -0.40131995 1.1160309
000180 62 79 55 3f 69 53 5e 3f 29 9e ac bf c6 21 93 be
       0.8338834 0.86846024 -1.3485767 -0.28736705
000190 2b 95 85 3e b7 6d 35 3f fa 80 d8 3d 95 40 87 3f
       0.2609037 0.70870537 0.10571475 1.0566584
0001a0 55 4e 57 be 67 03 c1 bf e6 74 f5 bf f0 0a f6 3e
       -0.21025975 -1.5079163 -1.91763 0.4805522

fc1.bias f4 [9]
000000 b7 d6 00 bf fc 25 2e be 54 a1 5a 3e 74 75 bf 3e
       -0.5032763 -0.17006677 0.21350604 0.37394297
000010 db a8 31 3f 4b 55 2b 3f 07 88 76 3e 33 3e 9c be
       0.6939828 0.6692702 0.24075328 -0.30516204
000020 d7 b7 07 be
       -0.13253723
