Weight/Onnx/Conv2D_Voice_Model_ACC87%.onnx (onnx, 8847 bytes, 10 tensors)

onnx::Conv_65 f4 [6, 1, 1, 80]
-1.0396972 3.50195 -4.2840943 0.4020824 3.1240237 -4.823642 2.8533323 0.21477108
-4.285668 0.15701066 2.0603778 -1.742762 -0.34523675 -0.40729222 0.36598963 2.7861907
-2.660284 -1.8321415 3.9394014 -3.0657804 -1.8616729 2.970672 -2.6014373 0.34056458
1.9053613 0.5013864 -1.6369578 0.27335092 0.65978295 -0.076447256 -0.56638765 0.5772189
0.39781404 -1.7362049 4.582095 -2.1310787 -0.7875808 4.203383 -1.5608131 1.1545578
1.1849599 -0.3451738 -0.016154759 0.15370731 0.2623093 1.0726753 1.6652308 -2.117277
1.8828077 1.7580678 -3.6336575 4.8947816 -0.7355465 -3.0760753 4.4003243 -3.1722264
2.9414074 0.030588996 -2.1484683 2.00205 -2.5138078 1.3272244 -1.680914 -2.3427117
1.684477 -1.2398019 -1.3307124 0.6648718 -1.3219136 -0.30250713 -1.2141238 1.4611373
-3.3641984 0.04842824 0.8794977 -1.7167579 2.555612 -1.7689388 0.4867327 0.35929075
-0.11107758 -0.31871447 0.47901314 0.57868826 0.25669804 0.3146019 -1.7278558 -1.3905934
-1.2327482 -0.24729009 1.0934863 -0.10283046 -0.2949711 -0.09246013 -0.46011576 0.21885337
1.2880836 0.61508065 0.8201328 0.65733135 0.43837386 0.8682314 -0.035727784 -0.5049062
-0.20470475 0.23751496 -0.620216 -0.4742066 0.9185571 2.0095615 1.9227769 0.71980876
0.7731626 -0.13656345 -0.03082757 -0.40348065 -0.7829789 -0.41281193 0.34195673 0.5911328
-0.081014 0.93311006 0.9995844 -0.16540205 -0.25410068 -0.73424697 -0.8482793 -0.012268677
-0.45373607 -0.0107830465 0.64285666 -0.67200124 0.2843252 0.39970624 -0.8273768 0.8927167
0.22918454 1.0029777 1.7212063 1.2540971 0.52736735 0.15484269 -1.0869875 -1.0662029
0.3591447 -0.6053182 -0.1435574 0.5703515 0.5558259 0.4340245 -0.69299966 0.14369035
-0.04474759 -0.79916286 -0.0974142 0.5648899 -0.77697223 -0.7736375 0.80240726 2.5211768
0.12748572 -0.2061828 -0.41317424 0.18452045 1.3849788 0.14777447 -0.5438819 -1.7395123
-1.4506353 0.05645173 1.8213639 3.6045337 1.3277336 -0.9775029 -2.9917057 -3.36434
-1.3799161 1.1846153 2.7970808 1.9148643 0.28742772 -0.16187 0.24139494 0.027959166
-0.63208133 -1.3976026 -2.0367594 -2.0763535 0.36982125 2.9584086 3.1680129 2.2562528
0.086068265 -1.8046987 -3.0558634 -3.7621613 -1.3070954 1.0519232 2.5363953 4.1357007
2.699959 0.56592005 -2.216443 -3.4128203 -3.9088778 -1.3656627 1.2596703 1.7261287
2.894356 2.5578618 0.7279443 0.13828088 -0.85484016 -2.4592466 -3.1573923 -2.1387472
-0.24830993 1.6357961 2.8082469 2.7072122 1.7248747 0.27404657 -1.7132508 -1.5884664
-2.1891646 -2.0883281 -0.055699367 1.9262029 1.4459144 1.098885 0.45024353 -0.92467034
-0.6386344 0.262535 -0.023351988 0.20310971 -0.037778176 -0.5765587 -1.0104607 1.249685
0.23455252 0.20598944 0.1841186 0.15465082 0.23830046 0.16065383 0.2583064 0.0960231
0.068438984 -0.024517808 -0.1452857 -0.33637106 -0.63470316 -0.647169 -0.523998 -0.43861187
00000000: cc14 85bf f31f 6040 4d17 89c0 bfdd cd3e
00000010: 01f0 4740 465b 9ac0 ff9c 3640 f3ec 5b3e
00000020: 3124 89c0 67c7 203e 3bdd 0340 d312 dfbf
00000030: dfc2 b0be 9b88 d0be fe62 bb3e f350 3240
00000040: 1842 2ac0 9d83 eabf 271f 7c40 bf35 44c0
00000050: 4c4b eebf 7d1f 3e40 f37d 26c0 7b5e ae3e
00000060: e1e2 f33f dc5a 003f d587 d1bf a7f4 8b3e
00000070: 89e7 283f 6190 9cbd c8fe 10bf 9ec4 133f
00000080: 48ae cb3e f63b debf 86a0 9240 9863 08c0
00000090: e59e 49bf 1d82 8640 b9c8 c7bf 8dc8 933f
000000a0: c4ac 973f 9fba b0be fc56 84bc 7365 1d3e
000000b0: 684d 863e 6d4d 893f 4826 d53f 7781 07c0
000000c0: d8ff f03f 5e08 e13f d88d 68c0 0da2 9c40
000000d0: c74c 3cbf 6bde 44c0 75cf 8c40 c205 4bc0
000000e0: 0540 3c40 c695 fa3c 8180 09c0 9621 0040
000000f0: 3ae2 20c0 7de2 a93f 3128 d7bf fdee 15c0
00000100: f19c d73f d4b1 9ebf c954 aabf 0a35 2a3f
00000110: 7734 a9bf 37e2 9abe 6968 9bbf 8c06 bb3f
00000120: 074f 57c0 b15c 463d c326 613f b9be dbbf
00000130: 268f 2340 966c e2bf 0735 f93e f5f4 b73e
00000140: a47c e3bd 8b2e a3be 3641 f53e ea24 143f
00000150: ed6d 833e 8013 a13e 612a ddbf f7fe b1bf
00000160: b1ca 9dbf 9d39 7dbe 5cf7 8b3f c798 d2bd
00000170: 7406 97be bd5b bdbd 4b94 ebbe 191b 603e
00000180: ecdf a43f ed75 1d3f 39f4 513f de46 283f
00000190: 8a72 e03e 6a44 5e3f 4c57 12bd 8841 01bf
000001a0: 1f9e 51be 1f37 733e 7ac6 1ebf 35cb f2be
000001b0: 8f26 6b3f a89c 0040 8e1d f63f 6345 383f
000001c0: fced 453f 4ad7 0bbe 1a8a fcbc 0495 cebe
000001d0: 4e71 48bf 165c d3be f414 af3e 7b54 173f
000001e0: abea a5bd 4de0 6e3f c3e4 7f3f 285f 29be
000001f0: 7c19 82be 9cf7 3bbf d528 59bf 9002 49bc
00000200: 1850 e8be 60ab 30bc 4192 243f 4608 2cbf
00000210: 1393 913e 4ca6 cc3e f7ce 53bf 1589 643f
00000220: 5aaf 6a3e 9361 803f 7d50 dc3f 4186 a03f
00000230: 8c01 073f 158f 1e3e 6822 8bbf 5679 88bf
00000240: d0e1 b73e 22f6 1abf b600 13be 8e02 123f
00000250: 9b4a 0e3f 7638 de3e 6d68 31bf 9023 133e
00000260: 4049 37bd f095 4cbf 1981 c7bd a09c 103f
00000270: a7e7 46bf 1b0d 46bf 906a 4d3f f65a 2140
00000280: 9e8b 023e 9521 53be 938b d3be eef2 3c3e
00000290: fc46 b13f 3152 173e d83b 0bbf 57a8 debf
000002a0: 6bae b9bf ee39 673d 7422 e93f aeb0 6640
000002b0: 2df3 a93f a13d 7abf 1b78 3fc0 5951 57c0
000002c0: 17a1 b0bf 79a1 973f 5f03 3340 461a f53f
000002d0: ba29 933e 40c1 25be 3c30 773e 9f0a e53c
000002e0: 15d0 21bf a4e4 b2bf 445a 02c0 fae2 04c0
000002f0: 3659 bd3e 9156 3d40 b9c0 4a40 7266 1040
00000300: 8f44 b03d 5e00 e7bf 4493 43c0 40c7 70c0
00000310: e74e a7bf 6ba5 863f 4d54 2240 a957 8440
00000320: 21cc 2c40 23e0 103f 34da 0dc0 a66b 5ac0
00000330: 0e2b 7ac0 09ce aebf e03c a13f c9f1 dc3f
00000340: 213d 3940 02b4 2340 8f5a 3a3f 8199 0d3e
00000350: ced6 5abf 4c64 1dc0 b712 4ac0 3ce1 08c0
00000360: f544 7ebe c461 d13f 51ba 3340 f742 2d40
00000370: b2c8 dc3f d54f 8c3e cd4b dbbf de52 cbbf
00000380: 461b 0cc0 2ba7 05c0 0525 64bd d18d f63f
00000390: b913 b93f 44a8 8c3f 5286 e63e 32b7 6cbf
000003a0: 8b7d 23bf fd6a 863e ab4c bfbc fefb 4f3e
000003b0: 4abd 1abd 5a99 13bf c756 81bf aef5 9f3f
000003c0: 892e 703e e5ee 523e 9689 3c3e c95c 1e3e
000003d0: 0905 743e 7082 243e bd40 843e c2a7 c43d
000003e0: bd29 8c3d 92d9 c8bc c6c5 14be d438 acbe
000003f0: e87b 22bf deac 25bf bc24 06bf bc91 e0be

onnx::Conv_66 f4 [6]
0.06947872 -1.4800484 0.010922576 0.15378085 0.0007839196 0.3778833
00000000: dc4a 8e3d 3a72 bdbf 9bf4 323c ba78 1d3e
00000010: f47f 4d3a eb79 c13e

onnx::Conv_68 f4 [6, 6, 1, 3]
-0.44173688 -0.4924965 -0.39643237 -0.06875261 0.08605897 0.11489828 0.0069739413 0.10579793
0.030760732 0.10094773 0.13255833 0.14647725 -0.07666517 -0.08555267 -0.02688646 -0.18624358
-0.36782613 -0.31208855 -0.08673202 -0.05167653 -0.0894136 0.004174844 0.028799055 0.08409213
0.1457608 0.15734348 0.057558026 0.011114352 0.08979376 0.08288386 0.055687465 0.081830114
0.02755318 0.11674866 0.09394382 -0.033009935 -0.06966261 -0.024569588 -0.047364056 -0.15180875
-0.16452412 -0.081047505 -0.23380142 -0.3253977 -0.16683197 0.07198055 0.2670898 0.101074174
0.16398521 0.5465213 0.19178568 0.026181672 -0.0016111814 0.0029832348 -0.07075214 -0.02141108
-0.03223064 -0.3891595 -0.08427081 -0.1675231 0.18610877 0.2449902 0.18397474 0.1804262
0.17641468 0.14586076 0.05208533 0.111511305 0.010332854 -0.08686638 -0.011820929 -0.023980951
0.047185548 0.14992198 0.20079622 -0.029526997 -0.108443655 0.041122608 0.01106298 0.0037337118
0.059591543 0.03508009 0.009149804 -0.024059072 0.021614652 0.053190373 0.014210825 0.13278951
-0.045444384 0.04210401 -0.081944995 -0.070348516 -0.06943829 -0.17848572 -0.5135869 -0.27517483
0.012329726 0.005475662 -0.03753139 0.11785063 0.21561386 0.20313583 -0.027695252 -0.10565317
-0.21165253 0.13627909 0.6633727 0.12868667
00000000: 562b e2be 8028 fcbe 2ff9 cabe 2bce 8cbd
00000010: af3f b03d ca4f eb3d a985 e43b 96ac d83d
00000020: eefd fb3c afbd ce3d 5fbd 073e 22fe 153e
00000030: a102 9dbd 3d36 afbd fe40 dcbc a3b6 3ebe
00000040: b553 bcbe 12ca 9fbe 8fa0 b1bd c5aa 53bd
00000050: 7a1e b7bd 21cd 883b ffeb eb3c 7f38 ac3d
00000060: 5242 153e a61e 213e f7c1 6b3d f918 363c
00000070: cae5 b73d 03bf a93d 8a18 643d 8c96 a73d
00000080: 35b7 e13c ec19 ef3d 9e65 c03d 6d35 07bd
00000090: 45ab 8ebd 2946 c9bc d000 42bd c173 1bbe
000000a0: 0379 28be 3cfc a5bd a469 6fbe 879a a6be
000000b0: 00d6 2abe 8a6a 933d ffbf 883e faff ce3d
000000c0: bdeb 273e d2e8 0b3f 7763 443e f27a d63c
000000d0: 472e d3ba 6082 433b 7fe6 90bd 4a66 afbc
000000e0: 4704 04bd ea3f c7be 2d96 acbd 2d8b 2bbe
000000f0: 4c93 3e3e b6de 7a3e e063 3c3e a5c1 383e
00000100: 0da6 343e 865c 153e 6d57 553d 0a60 e43d
00000110: 224b 293c 00e7 b1bd 92ac 41bc b373 c4bc
00000120: a245 413d 2685 193e 869d 4d3e 9ae2 f1bc
00000130: b517 debd 2e70 283d 8041 353c 4ab1 743b
00000140: 4316 743d 24b0 0f3d 0fe9 153c 8817 c5bc
00000150: 3611 b13c 26de 593d 85d4 683c f9f9 073e
00000160: e423 3abd 4175 2c3d c7d2 a7bd e212 90bd
00000170: aa35 8ebd f6c4 36be 6e7a 03bf b7e3 8cbe
00000180: 9e02 4a3c 2f6d b33b 84ba 19bd ac5b f13d
00000190: e1c9 5c3e d702 503e 27e1 e2bc b060 d8bd
000001a0: 71bb 58be bf8c 0b3e cbd2 293f 70c6 033e

onnx::Conv_69 f4 [6]
0.93318254 -0.31820703 0.30109477 0.014679909 -0.058689952 -0.30120316
00000000: 0de5 6e3f 08ec a2be 1829 9a3e 0084 703c
00000010: e064 70bd 4d37 9abe

onnx::Conv_71 f4 [12, 6, 1, 3]
0.13104956 0.3593418 0.34103864 -0.10972679 -0.26282737 -0.13779129 -0.47136998 -0.02992003
0.18975708 -0.436107 -0.1537415 0.21483923 0.38872603 -0.22575739 -0.21978767 0.14130574
-0.18772162 -0.22094952 -0.11932256 -0.062092133 -0.2208451 -0.05965994 -0.21664369 -0.052156705
0.21956545 0.15943122 -0.15482935 -0.09768195 -0.12299622 -0.7338998 0.21559016 -0.085880205
-0.18097413 0.23861222 0.0035521481 -0.033190526 -0.37427258 -0.3559838 -0.53031945 0.0031687971
-0.27730203 -0.09351942 -0.35543385 0.055618834 0.14666837 -0.09653408 -0.41274235 -0.12406254
-0.042374592 -0.029683769 -0.07743216 0.10701526 0.07993968 0.11588222 0.14290898 0.055802878
-0.11272551 -0.1522785 -0.12718931 0.113961294 -0.012929628 0.12718405 0.18192427 -0.27692497
-0.044015013 0.13226777 0.009804108 -0.014064556 0.0134101985 0.010026227 -0.044821445 0.037580118
-0.105407014 -0.07563101 -0.08826159 -0.0008919372 -0.21001859 -0.22876832 0.2381876 0.17909381
0.13803698 -0.15225498 -0.1962689 -0.29120412 0.03405243 -0.13595362 -0.11638607 -0.0040829154
0.048776116 0.26122662 -0.59278303 -0.023430042 0.7892251 -0.108077444 -0.43902266 -0.2791314
0.12281227 -0.08788215 -0.24895218 0.3341067 0.0802079 0.013044553 0.4369428 0.103391364
-1.0198834 0.39218 -0.028088488 -0.42394194 -0.08898311 -0.11158449 -0.50071317 -0.1790544
-0.386383 -0.17928481 0.14522171 -0.11351812 -0.10443397 0.26575506 -0.0639752 0.15146771
0.008259311 0.06338048 -0.074276075 -0.027967839 -0.41912538 -0.70442206 -0.12641357 -0.27877676
-0.70151544 -0.13752592 -0.23867242 -0.18597363 0.051684137 -0.008438308 0.17789228 0.13879171
-0.050044276 -0.05849436 0.09229163 0.0026472404 0.117382765 0.0247789 0.013405105 -0.08382223
0.024803797 0.090881795 -0.3977428 0.025195751 -0.212023 -0.16002506 -0.011579026 -0.33542442
-0.3091284 0.2443628 0.02070086 -0.086934306 -0.071297154 -0.16125853 -0.16233464 -0.0141745
0.14756957 0.33316714 0.37441915 0.395419 -0.6367131 -0.32754692 -0.12955578 -0.024921428
-0.0009551794 0.007717335 0.04930798 0.033836737 -0.05049472 0.17671643 -0.5022306 -0.10702906
0.17739215 -0.9616178 0.09170213 0.28518 -0.043437894 -0.015728265 0.03539458 -0.11426676
-0.10435652 -0.13826375 0.17944404 0.08541723 -0.08841199 0.060760137 0.110309206 0.13670757
-0.10295837 -0.096338354 -0.04332076 0.02194955 -0.07359042 -0.11530601 -0.18906185 -0.09687244
-0.26852044 -0.2034781 0.053921998 -0.117325746 -0.35190618 -0.15523405 -0.44089195 -0.69755805
-0.27286294 0.065955654 0.025480479 0.13746817 0.10385001 -0.2722886 -0.12294562 0.14618336
00000000: db31 063e a6fb b73e 9e9c ae3e 70b8 e0bd
00000010: 4f91 86be 2919 0dbe 6857 f1be da1a f5bc
00000020: ae4f 423e 6b49 dfbe 696e 1dbe d1fe 5b3e
00000030: 1907 c73e f22c 67be 0510 61be 74b2 103e
00000040: 193a 40be 9740 62be 635f f4bd 5254 7ebd
00000050: 3825 62be fb5d 74bd d8d7 5dbe 45a2 55bd
00000060: c4d5 603e f041 233e 968b 1ebe 790d c8bd
00000070: 71e5 fbbd dbe0 3bbf abc3 5c3e f6e1 afbd
00000080: 4851 39be c356 743e 28cb 683b caf2 07bd
00000090: a8a0 bfbe 8243 b6be 04c3 07bf 98ab 4f3b
000000a0: 88fa 8dbe 1c87 bfbd 6dfb b5be 93d0 633d
000000b0: 3c30 163e a9b3 c5bd f752 d3be 8014 febd
000000c0: fb90 2dbd 602b f3bc c194 9ebd d12a db3d
000000d0: 6ab7 a33d a853 ed3d bb56 123e 8f91 643d
000000e0: a2dc e6bd e5ee 1bbe ea3d 02be 8a64 e93d
000000f0: cad6 53bc 893c 023e 5b4a 3a3e 1cc9 8dbe
00000100: 1649 34bd 3471 073e 69a1 203c 066f 66bc
00000110: 73b6 5b3c 0b45 243c b196 37bd 9ced 193d
00000120: a2df d7bd 6ee4 9abd 7ec2 b4bd e4d0 69ba
00000130: 1d0f 57be 3e42 6abe 73e7 733e 5e64 373e
00000140: 9159 0d3e bbe8 1bbe b7fa 48be b518 95be
00000150: 907a 0b3d 6d37 0bbe d25b eebd fac9 85bb
00000160: 77c9 473d 7fbf 853e a1c0 17bf 5cf0 bfbc
00000170: a80a 4a3f b557 ddbd 94c7 e0be 50ea 8ebe
00000180: 0085 fb3d 8ffb b3bd 52ed 7ebe 0910 ab3e
00000190: 0a44 a43d d2b8 553c f7b6 df3e dabe d33d
000001a0: 8a8b 82bf d1cb c83e d419 e6bc eb0e d9be
000001b0: c73c b6bd 6986 e4bd bd2e 00bf 095a 37be
000001c0: fed3 c5be 7096 37be 00b5 143e 307c e8bd
000001d0: 7ae1 d5bd 0c11 883e 6e05 83bd 5a1a 1b3e
000001e0: 1052 073c a0cd 813d 0e1e 98bd cf1c e5bc
000001f0: 9a97 d6be 0155 34bf 8f72 01be d4bb 8ebe
00000200: 8496 33bf 98d3 0cbe 8b66 74be df6f 3ebe
00000210: bfb2 533d d440 0abc 6529 363e 6a1f 0e3e
00000220: 3afb 4cbd c897 6fbd 6503 bd3d 537d 2d3b
00000230: 6066 f03d 1ffd ca3c 16a1 5b3c fdaa abbd
00000240: 5531 cb3c 3c20 ba3d f2a4 cbbe 5267 ce3c
00000250: 8f1c 59be 9cdd 23be f4b5 3dbc c0bc abbe
00000260: 1446 9ebe 3e3a 7a3e da94 a93c 9d0a b2bd
00000270: 3e04 92bd f520 25be 0d3b 26be 293c 68bc
00000280: 7a1c 173e e294 aa3e deb3 bf3e 5c74 ca3e
00000290: a1ff 22bf 3bb4 a7be 45aa 04be 0628 ccbc
000002a0: 0165 7aba b3e1 fc3b 2af7 493d 6498 0a3d
000002b0: 8dd3 4ebd 27f5 343e 2f92 00bf 0d32 dbbd
000002c0: 4aa6 353e 962c 76bf 54ce bb3d 1d03 923e
000002d0: efeb 31bd 90d8 80bc e8f9 103d b104 eabd
000002e0: dfb8 d5bd 0395 0dbe 2ec0 373e 3bef ae3d
000002f0: 5811 b5bd 9fdf 783d cbe9 e13d 12fd 0b3e
00000300: d6db d2bd 0b4d c5bd 1c71 31bd 8bcf b33c
00000310: 93b6 96bd 8f25 ecbd 6e99 41be 0f65 c6bd
00000320: 837b 89be 905c 50be 50dd 5c3d 7b48 f0bd
00000330: 0c2d b4be adf5 1ebe 97bc e1be 2a93 32bf
00000340: b1b4 8bbe c213 873d 70bc d03c 75c4 0c3e
00000350: 50af d43d 6969 8bbe eaca fbbd 17b1 153e

onnx::Conv_72 f4 [12]
0.3513315 0.18758017 1.0357127 -0.12571962 0.23493764 -0.0016077161 0.5999181 0.389267
0.28726584 -0.035689175 1.1397983 0.900581
00000000: b9e1 b33e 0415 403e 3c92 843f a5bc 00be
00000010: 7e93 703e 00ba d2ba 3c94 193f 014e c73e
00000020: 8214 933e d02e 12bd e9e4 913f 7a8c 663f

onnx::Conv_74 f4 [12, 12, 1, 3]
0.13436694 -1.725515 -1.3535783 -0.9171079 -0.19508608 -0.71683675 0.09398394 3.7132647
-1.2438427 0.89301074 -0.17679915 -0.3103255 2.2284842 0.86586297 -0.53257525 0.26246318
-1.9465473 0.1488513 -0.6079277 -2.2266233 0.87856555 -1.9432983 -0.8674618 -0.6525178
-0.2062274 1.109119 1.1813458 -1.5807532 -0.20369041 -0.67380655 -1.0129478 -0.4679849
1.0466083 3.33988 1.923513 -5.275684 -1.9690458 0.5425788 4.580297 -0.09924018
1.2989883 -1.1645944 -2.900676 2.9924943 0.89506906 -0.011073713 0.84622186 -2.0666397
0.21631654 -3.2599082 -0.5417618 -1.266532 -0.9249594 0.63763076 2.6347167 -4.65549
-4.8512816 1.4614301 -0.6650267 0.35222262 1.5856487 3.1021018 -1.3175981 -2.0310326
-2.5813673 1.442814 3.089589 -0.82117534 0.14038622 -2.791818 1.3806611 -0.23929118
1.4507853 -0.9596652 -0.8743348 -0.94945425 -1.390684 -4.716774 -1.9537429 3.4264185
0.96701396 -1.8410282 0.47671905 0.79087347 0.38698536 0.6573875 -1.0610898 0.613859
0.76795554 0.12554255 -2.2405388 -1.047763 -0.5783484 -1.3135089 -0.12087557 -1.6051251
0.8222083 0.66827655 -0.30815735 2.8827724 -0.19412342 -0.50841385 1.3109092 0.21713786
1.5430462 -1.5314618 6.909011 0.4954377 2.39406 1.5913929 -1.3999026 -0.7591256
-2.869326 -1.1985047 0.43028867 1.0200862 -0.2118207 -0.47634915 -0.759438 -1.0836422
0.39096954 2.3466618 -1.3258837 0.71708316 0.22334489 0.3244678 1.0626191 -3.019683
1.3389028 -0.5081044 -0.45887184 0.41983405 0.1965197 1.2332668 0.6822994 2.310533
4.5781937 -1.1974894 -0.76735055 -0.5727177 2.8168027 0.01244286 -1.2012205 -3.0468054
-1.1340437 -1.5969604 -0.25262985 1.4653153 1.786546 3.1719294 -1.9754916 -1.0796547
-0.113369465 -1.3322556 -1.5521004 -1.7743734 -0.71162075 4.359181 1.1888984 -1.4251909
-2.3048184 -2.0374546 1.8954751 0.5160378 -1.8701097 0.5613831 0.72472477 0.050801456
1.8815925 -2.5991004 -2.0291657 0.92618656 -0.31795526 1.6640794 -0.13715349 0.03487804
0.22008131 -1.0596797 -2.149088 1.5027579 -1.1360623 -4.718575 0.7468128 1.5545771
0.35089788 -2.9286203 -0.5016578 -1.9367764 -0.9600103 0.46546 -1.1746354 -2.122746
-1.8738195 0.20611759 -0.49475956 -0.7889038 1.0785359 1.5682139 -1.8051175 1.0504464
4.8403144 0.51750404 0.7487815 -1.3554776 0.7541979 0.40252912 -1.539194 0.23750867
-0.017708462 2.288023 -0.46704793 -0.84257096 -0.5370707 1.1938872 -1.0400312 -0.9328194
0.65214807 0.24304952 1.5712668 -0.50002885 -0.5601039 -1.4105736 0.8351153 1.559437
4.086204 2.4792714 -1.1723715 1.3848368 -0.6013708 -1.8244629 2.673761 0.57156706
0.43575597 0.6895504 3.379986 0.39498696 -0.0028128724 -0.23547046 -2.683298 1.7719119
-2.8337314 1.8668826 -2.093278 -0.8736722 1.7913089 0.056958783 -0.15301695 1.295643
-3.7360847 1.1262546 -4.7894645 -1.1538559 -0.3514029 -1.2231067 -0.6667301 -0.30026823
00000000: 7d97 093e addd dcbf 0e42 adbf 95c7 6abf
00000010: a5c4 47be 9d82 37bf a77a c03d 21a6 6d40
00000020: 3d36 9fbf 5a9c 643f d60a 35be fce2 9ebe
00000030: 7c9f 0e40 32a9 5d3f da56 08bf 9361 863e
00000040: 7628 f9bf 7a6c 183e 26a1 1bbf ff80 0ec0
00000050: ace9 603f 00be f8bf fa11 5ebf 680b 27bf
00000060: 472d 53be 9df7 8d3f 5736 973f 1f56 cabf
00000070: 3894 50be 967e 2cbf 46a8 81bf b89b efbe
00000080: 43f7 853f 98c0 5540 ad35 f63f 67d2 a8c0
00000090: b109 fcbf 72e6 0a3f cb91 9240 6f3e cbbd
000000a0: 4045 a63f 6e11 95bf ada4 39c0 0785 3f40
000000b0: 3f23 653f 856e 35bc ffa1 583f d343 04c0
000000c0: 1582 5d3e 56a2 50c0 e7b0 0abf b81d a2bf
000000d0: 24ca 6cbf c53b 233f 339f 2840 c6f9 94c0
000000e0: b33d 9bc0 2410 bb3f 313f 2abf 8656 b43e
000000f0: 89f6 ca3f d688 4640 0ea7 a8bf 70fc 01c0
00000100: 1f35 25c0 21ae b83f d4bb 4540 8c38 52bf
00000110: 68c1 0f3e 25ad 32c0 81b9 b03f bf08 75be
00000120: 55b3 b93f 9eac 75bf 68d4 5fbf 6f0f 73bf
00000130: ef01 b2bf d0ef 96c0 3f14 fabf 714a 5b40
00000140: 3a8e 773f d0a6 ebbf 8514 f43e af76 4a3f
00000150: f222 c63e 8c4a 283f cad1 87bf dd25 1d3f
00000160: bc98 443f 3a8e 003e fd64 0fc0 191d 86bf
00000170: a40e 14bf 0f21 a8bf 9c8d f7bd bd74 cdbf
00000180: 3e7c 523f 2c14 2b3f cdc6 9dbe 587f 3840
00000190: 4ac8 46be 6927 02bf dfcb a73f 6359 5e3e
000001a0: 8a82 c53f f106 c4bf 9e16 dd40 03aa fd3e
000001b0: 4738 1940 c3b2 cb3f 0230 b3bf 0e56 42bf
000001c0: 0aa3 37c0 9a68 99bf cc4e dc3e 2f92 823f
000001d0: 87e7 58be 09e4 f3be 876a 42bf cab4 8abf
000001e0: 292d c83e b52f 1640 8fb6 a9bf c392 373f
000001f0: 86b4 643e a520 a63e e703 883f 7c42 41c0
00000200: 2b61 ab3f 2113 02bf 40f1 eabe 7df4 d63e
00000210: 763c 493e b0db 9d3f 2cab 2e3f c6df 1340
00000220: 9080 9240 5547 99bf 1671 44bf a19d 12bf
00000230: 7f46 3440 23dd 4b3c 98c1 99bf dcfe 42c0
00000240: 5828 91bf 3369 ccbf b358 81be 748f bb3f
00000250: 8aad e43f e400 4b40 e9dc fcbf 2032 8abf
00000260: 402e e8bd 5a87 aabf 3aab c6bf ab1e e3bf
00000270: c72c 36bf 697e 8b40 d32d 983f a86c b6bf
00000280: 2582 13c0 a865 02c0 ee9e f23f 0e1b 043f
00000290: c15f efbf ceb6 0f3f 9087 393f 3015 503d
000002a0: 06d8 f03f a957 26c0 dadd 01c0 901a 6d3f
000002b0: 08cb a2be 8e00 d53f f771 0cbe 47dc 0e3d
000002c0: ff5c 613e 96a3 87bf a88a 09c0 5f5a c03f
000002d0: 7d6a 91bf 91fe 96c0 202f 3f3f 62fc c63f
000002e0: e3a8 b33e 846e 3bc0 a56c 00bf 4ae8 f7bf
000002f0: 3cc3 75bf c650 ee3e 745a 96bf 12db 07c0
00000300: 51d9 efbf 7d10 533e 2051 fdbe 99f5 49bf
00000310: 770d 8a3f 3cbb c83f 170e e7bf 0775 863f
00000320: dbe3 9a40 257b 043f 25b0 3f3f 4a80 adbf
00000330: 1d13 413f 4c18 ce3e 4f04 c5bf 7935 733e
00000340: 5611 91bc f86e 1240 e820 efbe bbb2 57bf
00000350: 777d 09bf 4cd1 983f be1f 85bf 41cd 6ebf
00000360: 2df3 263f f9e1 783e 451f c93f e401 00bf
00000370: f862 0fbf ad8d b4bf 1eca 553f a29b c73f
00000380: 2fc2 8240 62ac 1e40 4510 96bf 5542 b13f
00000390: 70f3 19bf 0088 e9bf e61e 2b40 3852 123f
000003a0: 681b df3e 6086 303f b151 5840 bb3b ca3e
000003b0: 2b58 38bb 2b1f 71be 28bb 2bc0 02ce e23f
000003c0: db5b 35c0 02f6 ee3f 44f8 05c0 fba8 5fbf
000003d0: 9c49 e53f 9d4d 693d 7ab0 1cbe a1d7 a53f
000003e0: 031c 6fc0 1c29 903f 4b43 99c0 8db1 93bf
000003f0: 15eb b3be c38e 9cbf d3ae 2abf c2bc 99be

onnx::Conv_75 f4 [12]
0.30908626 -3.5809193 -4.888113 -3.3132114 1.7585577 6.5915747 0.25228778 5.6789684
-4.9145555 -3.2941678 3.4808562 -3.7556484
00000000: 8e40 9e3e c82d 65c0 6c6b 9cc0 a80b 54c0
00000010: 6b18 e13f 2eee d240 dd2b 813e 1cba b540
00000020: 0a44 9dc0 a5d3 52c0 59c6 5e40 8b5c 70c0

onnx::MatMul_76 f4 [12, 9]
-2.0681283 0.7301044 0.036542743 -2.021182 -1.0639857 0.733514 -0.23894908 0.055920444
0.350194 -2.1323752 -0.9436726 -0.3288799 -0.3849643 -0.20398657 -0.6434611 2.2529738
-0.05561598 0.09066324 -1.9769199 0.8770791 0.78843576 -1.929911 0.29462996 0.74329376
0.43115434 -1.3787043 -0.37836206 -1.5982897 -0.4581951 -1.7778784 0.5397412 1.2116172
-0.6634339 0.07633042 0.60611016 0.57454073 -0.23280968 -1.2405382 0.8245746 0.18047915
1.1578455 -1.1571642 -1.0441902 0.7498699 -0.16775216 0.2054431 0.35873422 -1.2775162
0.42964032 -0.80031115 0.9861638 -1.0690427 -0.30782482 1.1344335 -0.823626 -1.2740891
-0.34344712 -0.31921643 -1.0842901 0.26198286 1.0443283 0.8158077 0.49937025 1.5776348
0.43542892 -0.16563316 -0.12096393 0.14409073 0.37076625 0.24451587 -0.052730095 -2.0724666
-0.08152861 -0.8483377 1.5323771 0.85989815 -0.5900115 0.5489255 -0.08006646 -0.96540755
-1.0742484 -0.6840452 1.6172321 -0.017157095 0.6640688 0.9408586 -0.683048 -0.5322854
-0.5188609 -0.8562506 0.32999113 -0.43797368 1.427423 -0.7866289 1.1196878 -1.0332807
0.2825843 -1.2346649 -0.30085966 -2.3283865 0.5501099 -0.83283323 0.8097001 -0.8406995
-0.108685665 -0.91201967 0.12248156 1.261078
00000000: 375c 04c0 1fe8 3a3f d8ad 153d 0c5b 01c0
00000010: af30 88bf 93c7 3b3f 11af 74be d60c 653d
00000020: a14c b33e d678 08c0 8794 71bf f262 a8be
00000030: 0a1a c5be dbe1 50be deb9 24bf b930 1040
00000040: 95cd 63bd a6ad b93d b60b fdbf 4288 603f
00000050: edd6 493f 5307 f7bf bdd9 963e 8048 3e3f
00000060: 43c0 dc3e 6279 b0bf acb8 c1be c294 ccbf
00000070: 8c98 eabe 8591 e3bf 7b2c 0a3f 4616 9b3f
00000080: ced6 29bf 2053 9c3d 092a 1b3f 1a15 133f
00000090: a965 6ebe f5c9 9ebf 5217 533f 87cf 383e
000000a0: 4834 943f f51d 94bf 06a8 85bf 79f7 3f3f
000000b0: 39c7 2bbe ad5f 523e 03ac b73e a785 a3bf
000000c0: d1f9 db3e 31e1 4cbf 3b75 7c3f 64d6 88bf
000000d0: 379b 9dbe 1e35 913f 27d9 52bf 5a15 a3bf
000000e0: 4dd8 afbe 5670 a3be 05ca 8abf 9e22 863e
000000f0: 8dac 853f c6d8 503f 75ad ff3e f0ef c93f
00000100: 8af0 de3e bd9b 29be f0bb f7bd 858c 133e
00000110: 13d5 bd3e 5e62 7a3e 83fb 57bd 4ba3 04c0
00000120: 79f8 a6bd a92c 59bf ef24 c43f 4922 5c3f
00000130: fe0a 17bf 6286 0c3f e2f9 a3bd f324 77bf
00000140: f980 89bf 961d 2fbf 7601 cf3f 098d 8cbc
00000150: 6a00 2a3f 1cdc 703f 3cdc 2ebf db43 08bf
00000160: 11d4 04bf 3d33 5bbf 99f4 a83e 163e e0be
00000170: ccb5 b63f 8360 49bf ee51 8f3f 8b42 84bf
00000180: e4ae 903e 8009 9ebf 470a 9abe 4904 15c0
00000190: 01d4 0c3f 8f34 55bf 8148 4f3f 1538 57bf
000001a0: 9796 debd 1f7a 69bf 9dd7 fa3d 016b a13f

fc1.bias f4 [9]
1.3810526 -0.22221415 0.16998059 0.47937697 -0.15141201 -0.3669647 0.053780604 -0.57420576
0.400931
00000000: 55c6 b03f 1b8c 63be 640f 2e3e e670 f53e
00000010: c00b 1bbe cce2 bbbe 0d49 5c3d 26ff 12bf
00000020: d446 cd3e
